…
The value is the same before and after calling `init_weights` of EncoderDecoder  

decode_head.clip_model.token_embedding.weight - torch.Size([49408, 512]): 
The value is the same before and after calling `init_weights` of EncoderDecoder  

decode_head.clip_model.ln_final.weight - torch.Size([512]): 
The value is the same before and after calling `init_weights` of EncoderDecoder  

decode_head.clip_model.ln_final.bias - torch.Size([512]): 
The value is the same before and after calling `init_weights` of EncoderDecoder  
2023-05-18 20:22:38,389 - mmseg - INFO - EncoderDecoder(
  (backbone): ResNetV1c(
    (stem): Sequential(
      (0): Conv2d(3, 32, kernel_size=(3, 3), stride=(2, 2), padding=(1, 1), bias=False)
      (1): _BatchNormXd(32, eps=1e-05, momentum=0.1, affine=True, track_running_stats=True)
      (2): ReLU(inplace=True)
      (3): Conv2d(32, 32, kernel_size=(3, 3), stride=(1, 1), padding=(1, 1), bias=False)
      (4): _BatchNormXd(32, eps=1e-05, momentum=0.1, affine=True, track_running_stats=True)
      (5): ReLU(inplace=True)
      (6): Conv2d(32, 64, kernel_size=(3, 3), stride=(1, 1), padding=(1, 1), bias=False)
      (7): _BatchNormXd(64, eps=1e-05, momentum=0.1, affine=True, track_running_stats=True)
      (8): ReLU(inplace=True)
    )
    (stem_pool): MaxPool2d(kernel_size=3, stride=2, padding=1, dilation=1, ceil_mode=False)
    (layer1): ResLayer(
      (0): Bottleneck(
        (conv1): Conv2d(64, 64, kernel_size=(1, 1), stride=(1, 1), bias=False)
        (bn1): _BatchNormXd(64, eps=1e-05, momentum=0.1, affine=True, track_running_stats=True)
        (conv2): Conv2d(64, 64, kernel_size=(3, 3), stride=(1, 1), padding=(1, 1), bias=False)
        (bn2): _BatchNormXd(64, eps=1e-05, momentum=0.1, affine=True, track_running_stats=True)
        (conv3): Conv2d(64, 256, kernel_size=(1, 1), stride=(1, 1), bias=False)
        (bn3): _BatchNormXd(256, eps=1e-05, momentum=0.1, affine=True, track_running_stats=True)
        (relu): ReLU(inplace=True)
        (downsample): Sequential(
          (0): Conv2d(64, 256, kernel_size=(1, 1), stride=(1, 1), bias=False)
          (1): _BatchNormXd(256, eps=1e-05, momentum=0.1, affine=True, track_running_stats=True)
        )
      )
      (1): Bottleneck(
        (conv1): Conv2d(256, 64, kernel_size=(1, 1), stride=(1, 1), bias=False)
        (bn1): _BatchNormXd(64, eps=1e-05, momentum=0.1, affine=True, track_running_stats=True)
        (conv2): Conv2d(64, 64, kernel_size=(3, 3), stride=(1, 1), padding=(1, 1), bias=False)
        (bn2): _BatchNormXd(64, eps=1e-05, momentum=0.1, affine=True, track_running_stats=True)
        (conv3): Conv2d(64, 256, kernel_size=(1, 1), stride=(1, 1), bias=False)
        (bn3): _BatchNormXd(256, eps=1e-05, momentum=0.1, affine=True, track_running_stats=True)
        (relu): ReLU(inplace=True)
      )
      (2): Bottleneck(
        (conv1): Conv2d(256, 64, kernel_size=(1, 1), stride=(1, 1), bias=False)
        (bn1): _BatchNormXd(64, eps=1e-05, momentum=0.1, affine=True, track_running_stats=True)
        (conv2): Conv2d(64, 64, kernel_size=(3, 3), stride=(1, 1), padding=(1, 1), bias=False)
        (bn2): _BatchNormXd(64, eps=1e-05, momentum=0.1, affine=True, track_running_stats=True)
        (conv3): Conv2d(64, 256, kernel_size=(1, 1), stride=(1, 1), bias=False)
        (bn3): _BatchNormXd(256, eps=1e-05, momentum=0.1, affine=True, track_running_stats=True)
        (relu): ReLU(inplace=True)
      )
    )
    (layer2): ResLayer(
      (0): Bottleneck(
        (conv1): Conv2d(256, 128, kernel_size=(1, 1), stride=(1, 1), bias=False)
        (bn1): _BatchNormXd(128, eps=1e-05, momentum=0.1, affine=True, track_running_stats=True)
        (conv2): Conv2d(128, 128, kernel_size=(3, 3), stride=(2, 2), padding=(1, 1), bias=False)
        (bn2): _BatchNormXd(128, eps=1e-05, momentum=0.1, affine=True, track_running_stats=True)
        (conv3): Conv2d(128, 512, kernel_size=(1, 1), stride=(1, 1), bias=False)
        (bn3): _BatchNormXd(512, eps=1e-05, momentum=0.1, affine=True, track_running_stats=True)
        (relu): ReLU(inplace=True)
        (downsample): Sequential(
          (0): Conv2d(256, 512, kernel_size=(1, 1), stride=(2, 2), bias=False)
          (1): _BatchNormXd(512, eps=1e-05, momentum=0.1, affine=True, track_running_stats=True)
        )
      )
      (1): Bottleneck(
        (conv1): Conv2d(512, 128, kernel_size=(1, 1), stride=(1, 1), bias=False)
        (bn1): _BatchNormXd(128, eps=1e-05, momentum=0.1, affine=True, track_running_stats=True)
        (conv2): Conv2d(128, 128, kernel_size=(3, 3), stride=(1, 1), padding=(1, 1), bias=False)
        (bn2): _BatchNormXd(128, eps=1e-05, momentum=0.1, affine=True, track_running_stats=True)
        (conv3): Conv2d(128, 512, kernel_size=(1, 1), stride=(1, 1), bias=False)
        (bn3): _BatchNormXd(512, eps=1e-05, momentum=0.1, affine=True, track_running_stats=True)
        (relu): ReLU(inplace=True)
      )
      (2): Bottleneck(
        (conv1): Conv2d(512, 128, kernel_size=(1, 1), stride=(1, 1), bias=False)
        (bn1): _BatchNormXd(128, eps=1e-05, momentum=0.1, affine=True, track_running_stats=True)
        (conv2): Conv2d(128, 128, kernel_size=(3, 3), stride=(1, 1), padding=(1, 1), bias=False)
        (bn2): _BatchNormXd(128, eps=1e-05, momentum=0.1, affine=True, track_running_stats=True)
        (conv3): Conv2d(128, 512, kernel_size=(1, 1), stride=(1, 1), bias=False)
        (bn3): _BatchNormXd(512, eps=1e-05, momentum=0.1, affine=True, track_running_stats=True)
        (relu): ReLU(inplace=True)
      )
      (3): Bottleneck(
        (conv1): Conv2d(512, 128, kernel_size=(1, 1), stride=(1, 1), bias=False)
        (bn1): _BatchNormXd(128, eps=1e-05, momentum=0.1, affine=True, track_running_stats=True)
        (conv2): Conv2d(128, 128, kernel_size=(3, 3), stride=(1, 1), padding=(1, 1), bias=False)
        (bn2): _BatchNormXd(128, eps=1e-05, momentum=0.1, affine=True, track_running_stats=True)
        (conv3): Conv2d(128, 512, kernel_size=(1, 1), stride=(1, 1), bias=False)
        (bn3): _BatchNormXd(512, eps=1e-05, momentum=0.1, affine=True, track_running_stats=True)
        (relu): ReLU(inplace=True)
      )
    )
    (layer3): ResLayer(
      (0): Bottleneck(
        (conv1): Conv2d(512, 256, kernel_size=(1, 1), stride=(1, 1), bias=False)
        (bn1): _BatchNormXd(256, eps=1e-05, momentum=0.1, affine=True, track_running_stats=True)
        (conv2): Conv2d(256, 256, kernel_size=(3, 3), stride=(1, 1), padding=(1, 1), bias=False)
        (bn2): _BatchNormXd(256, eps=1e-05, momentum=0.1, affine=True, track_running_stats=True)
        (conv3): Conv2d(256, 1024, kernel_size=(1, 1), stride=(1, 1), bias=False)
        (bn3): _BatchNormXd(1024, eps=1e-05, momentum=0.1, affine=True, track_running_stats=True)
        (relu): ReLU(inplace=True)
        (downsample): Sequential(
          (0): Conv2d(512, 1024, kernel_size=(1, 1), stride=(1, 1), bias=False)
          (1): _BatchNormXd(1024, eps=1e-05, momentum=0.1, affine=True, track_running_stats=True)
        )
      )
      (1): Bottleneck(
        (conv1): Conv2d(1024, 256, kernel_size=(1, 1), stride=(1, 1), bias=False)
        (bn1): _BatchNormXd(256, eps=1e-05, momentum=0.1, affine=True, track_running_stats=True)
        (conv2): Conv2d(256, 256, kernel_size=(3, 3), stride=(1, 1), padding=(2, 2), dilation=(2, 2), bias=False)
        (bn2): _BatchNormXd(256, eps=1e-05, momentum=0.1, affine=True, track_running_stats=True)
        (conv3): Conv2d(256, 1024, kernel_size=(1, 1), stride=(1, 1), bias=False)
        (bn3): _BatchNormXd(1024, eps=1e-05, momentum=0.1, affine=True, track_running_stats=True)
        (relu): ReLU(inplace=True)
      )
      (2): Bottleneck(
        (conv1): Conv2d(1024, 256, kernel_size=(1, 1), stride=(1, 1), bias=False)
        (bn1): _BatchNormXd(256, eps=1e-05, momentum=0.1, affine=True, track_running_stats=True)
        (conv2): Conv2d(256, 256, kernel_size=(3, 3), stride=(1, 1), padding=(2, 2), dilation=(2, 2), bias=False)
        (bn2): _BatchNormXd(256, eps=1e-05, momentum=0.1, affine=True, track_running_stats=True)
        (conv3): Conv2d(256, 1024, kernel_size=(1, 1), stride=(1, 1), bias=False)
        (bn3): _BatchNormXd(1024, eps=1e-05, momentum=0.1, affine=True, track_running_stats=True)
        (relu): ReLU(inplace=True)
      )
      (3): Bottleneck(
        (conv1): Conv2d(1024, 256, kernel_size=(1, 1), stride=(1, 1), bias=False)
        (bn1): _BatchNormXd(256, eps=1e-05, momentum=0.1, affine=True, track_running_stats=True)
        (conv2): Conv2d(256, 256, kernel_size=(3, 3), stride=(1, 1), padding=(2, 2), dilation=(2, 2), bias=False)
        (bn2): _BatchNormXd(256, eps=1e-05, momentum=0.1, affine=True, track_running_stats=True)
        (conv3): Conv2d(256, 1024, kernel_size=(1, 1), stride=(1, 1), bias=False)
        (bn3): _BatchNormXd(1024, eps=1e-05, momentum=0.1, affine=True, track_running_stats=True)
        (relu): ReLU(inplace=True)
      )
      (4): Bottleneck(
        (conv1): Conv2d(1024, 256, kernel_size=(1, 1), stride=(1, 1), bias=False)
        (bn1): _BatchNormXd(256, eps=1e-05, momentum=0.1, affine=True, track_running_stats=True)
        (conv2): Conv2d(256, 256, kernel_size=(3, 3), stride=(1, 1), padding=(2, 2), dilation=(2, 2), bias=False)
        (bn2): _BatchNormXd(256, eps=1e-05, momentum=0.1, affine=True, track_running_stats=True)
        (conv3): Conv2d(256, 1024, kernel_size=(1, 1), stride=(1, 1), bias=False)
        (bn3): _BatchNormXd(1024, eps=1e-05, momentum=0.1, affine=True, track_running_stats=True)
        (relu): ReLU(inplace=True)
      )
      (5): Bottleneck(
        (conv1): Conv2d(1024, 256, kernel_size=(1, 1), stride=(1, 1), bias=False)
        (bn1): _BatchNormXd(256, eps=1e-05, momentum=0.1, affine=True, track_running_stats=True)
        (conv2): Conv2d(256, 256, kernel_size=(3, 3), stride=(1, 1), padding=(2, 2), dilation=(2, 2), bias=False)
        (bn2): _BatchNormXd(256, eps=1e-05, momentum=0.1, affine=True, track_running_stats=True)
        (conv3): Conv2d(256, 1024, kernel_size=(1, 1), stride=(1, 1), bias=False)
        (bn3): _BatchNormXd(1024, eps=1e-05, momentum=0.1, affine=True, track_running_stats=True)
        (relu): ReLU(inplace=True)
      )
      (6): Bottleneck(
        (conv1): Conv2d(1024, 256, kernel_size=(1, 1), stride=(1, 1), bias=False)
        (bn1): _BatchNormXd(256, eps=1e-05, momentum=0.1, affine=True, track_running_stats=True)
        (conv2): Conv2d(256, 256, kernel_size=(3, 3), stride=(1, 1), padding=(2, 2), dilation=(2, 2), bias=False)
        (bn2): _BatchNormXd(256, eps=1e-05, momentum=0.1, affine=True, track_running_stats=True)
        (conv3): Conv2d(256, 1024, kernel_size=(1, 1), stride=(1, 1), bias=False)
        (bn3): _BatchNormXd(1024, eps=1e-05, momentum=0.1, affine=True, track_running_stats=True)
        (relu): ReLU(inplace=True)
      )
      (7): Bottleneck(
        (conv1): Conv2d(1024, 256, kernel_size=(1, 1), stride=(1, 1), bias=False)
        (bn1): _BatchNormXd(256, eps=1e-05, momentum=0.1, affine=True, track_running_stats=True)
        (conv2): Conv2d(256, 256, kernel_size=(3, 3), stride=(1, 1), padding=(2, 2), dilation=(2, 2), bias=False)
        (bn2): _BatchNormXd(256, eps=1e-05, momentum=0.1, affine=True, track_running_stats=True)
        (conv3): Conv2d(256, 1024, kernel_size=(1, 1), stride=(1, 1), bias=False)
        (bn3): _BatchNormXd(1024, eps=1e-05, momentum=0.1, affine=True, track_running_stats=True)
        (relu): ReLU(inplace=True)
      )
      (8): Bottleneck(
        (conv1): Conv2d(1024, 256, kernel_size=(1, 1), stride=(1, 1), bias=False)
        (bn1): _BatchNormXd(256, eps=1e-05, momentum=0.1, affine=True, track_running_stats=True)
        (conv2): Conv2d(256, 256, kernel_size=(3, 3), stride=(1, 1), padding=(2, 2), dilation=(2, 2), bias=False)
        (bn2): _BatchNormXd(256, eps=1e-05, momentum=0.1, affine=True, track_running_stats=True)
        (conv3): Conv2d(256, 1024, kernel_size=(1, 1), stride=(1, 1), bias=False)
        (bn3): _BatchNormXd(1024, eps=1e-05, momentum=0.1, affine=True, track_running_stats=True)
        (relu): ReLU(inplace=True)
      )
      (9): Bottleneck(
        (conv1): Conv2d(1024, 256, kernel_size=(1, 1), stride=(1, 1), bias=False)
        (bn1): _BatchNormXd(256, eps=1e-05, momentum=0.1, affine=True, track_running_stats=True)
        (conv2): Conv2d(256, 256, kernel_size=(3, 3), stride=(1, 1), padding=(2, 2), dilation=(2, 2), bias=False)
        (bn2): _BatchNormXd(256, eps=1e-05, momentum=0.1, affine=True, track_running_stats=True)
        (conv3): Conv2d(256, 1024, kernel_size=(1, 1), stride=(1, 1), bias=False)
        (bn3): _BatchNormXd(1024, eps=1e-05, momentum=0.1, affine=True, track_running_stats=True)
        (relu): ReLU(inplace=True)
      )
      (10): Bottleneck(
        (conv1): Conv2d(1024, 256, kernel_size=(1, 1), stride=(1, 1), bias=False)
        (bn1): _BatchNormXd(256, eps=1e-05, momentum=0.1, affine=True, track_running_stats=True)
        (conv2): Conv2d(256, 256, kernel_size=(3, 3), stride=(1, 1), padding=(2, 2), dilation=(2, 2), bias=False)
        (bn2): _BatchNormXd(256, eps=1e-05, momentum=0.1, affine=True, track_running_stats=True)
        (conv3): Conv2d(256, 1024, kernel_size=(1, 1), stride=(1, 1), bias=False)
        (bn3): _BatchNormXd(1024, eps=1e-05, momentum=0.1, affine=True, track_running_stats=True)
        (relu): ReLU(inplace=True)
      )
      (11): Bottleneck(
        (conv1): Conv2d(1024, 256, kernel_size=(1, 1), stride=(1, 1), bias=False)
        (bn1): _BatchNormXd(256, eps=1e-05, momentum=0.1, affine=True, track_running_stats=True)
        (conv2): Conv2d(256, 256, kernel_size=(3, 3), stride=(1, 1), padding=(2, 2), dilation=(2, 2), bias=False)
        (bn2): _BatchNormXd(256, eps=1e-05, momentum=0.1, affine=True, track_running_stats=True)
        (conv3): Conv2d(256, 1024, kernel_size=(1, 1), stride=(1, 1), bias=False)
        (bn3): _BatchNormXd(1024, eps=1e-05, momentum=0.1, affine=True, track_running_stats=True)
        (relu): ReLU(inplace=True)
      )
      (12): Bottleneck(
        (conv1): Conv2d(1024, 256, kernel_size=(1, 1), stride=(1, 1), bias=False)
        (bn1): _BatchNormXd(256, eps=1e-05, momentum=0.1, affine=True, track_running_stats=True)
        (conv2): Conv2d(256, 256, kernel_size=(3, 3), stride=(1, 1), padding=(2, 2), dilation=(2, 2), bias=False)
        (bn2): _BatchNormXd(256, eps=1e-05, momentum=0.1, affine=True, track_running_stats=True)
        (conv3): Conv2d(256, 1024, kernel_size=(1, 1), stride=(1, 1), bias=False)
        (bn3): _BatchNormXd(1024, eps=1e-05, momentum=0.1, affine=True, track_running_stats=True)
        (relu): ReLU(inplace=True)
      )
      (13): Bottleneck(
        (conv1): Conv2d(1024, 256, kernel_size=(1, 1), stride=(1, 1), bias=False)
        (bn1): _BatchNormXd(256, eps=1e-05, momentum=0.1, affine=True, track_running_stats=True)
        (conv2): Conv2d(256, 256, kernel_size=(3, 3), stride=(1, 1), padding=(2, 2), dilation=(2, 2), bias=False)
        (bn2): _BatchNormXd(256, eps=1e-05, momentum=0.1, affine=True, track_running_stats=True)
        (conv3): Conv2d(256, 1024, kernel_size=(1, 1), stride=(1, 1), bias=False)
        (bn3): _BatchNormXd(1024, eps=1e-05, momentum=0.1, affine=True, track_running_stats=True)
        (relu): ReLU(inplace=True)
      )
      (14): Bottleneck(
        (conv1): Conv2d(1024, 256, kernel_size=(1, 1), stride=(1, 1), bias=False)
        (bn1): _BatchNormXd(256, eps=1e-05, momentum=0.1, affine=True, track_running_stats=True)
        (conv2): Conv2d(256, 256, kernel_size=(3, 3), stride=(1, 1), padding=(2, 2), dilation=(2, 2), bias=False)
        (bn2): _BatchNormXd(256, eps=1e-05, momentum=0.1, affine=True, track_running_stats=True)
        (conv3): Conv2d(256, 1024, kernel_size=(1, 1), stride=(1, 1), bias=False)
        (bn3): _BatchNormXd(1024, eps=1e-05, momentum=0.1, affine=True, track_running_stats=True)
        (relu): ReLU(inplace=True)
      )
      (15): Bottleneck(
        (conv1): Conv2d(1024, 256, kernel_size=(1, 1), stride=(1, 1), bias=False)
        (bn1): _BatchNormXd(256, eps=1e-05, momentum=0.1, affine=True, track_running_stats=True)
        (conv2): Conv2d(256, 256, kernel_size=(3, 3), stride=(1, 1), padding=(2, 2), dilation=(2, 2), bias=False)
        (bn2): _BatchNormXd(256, eps=1e-05, momentum=0.1, affine=True, track_running_stats=True)
        (conv3): Conv2d(256, 1024, kernel_size=(1, 1), stride=(1, 1), bias=False)
        (bn3): _BatchNormXd(1024, eps=1e-05, momentum=0.1, affine=True, track_running_stats=True)
        (relu): ReLU(inplace=True)
      )
      (16): Bottleneck(
        (conv1): Conv2d(1024, 256, kernel_size=(1, 1), stride=(1, 1), bias=False)
        (bn1): _BatchNormXd(256, eps=1e-05, momentum=0.1, affine=True, track_running_stats=True)
        (conv2): Conv2d(256, 256, kernel_size=(3, 3), stride=(1, 1), padding=(2, 2), dilation=(2, 2), bias=False)
        (bn2): _BatchNormXd(256, eps=1e-05, momentum=0.1, affine=True, track_running_stats=True)
        (conv3): Conv2d(256, 1024, kernel_size=(1, 1), stride=(1, 1), bias=False)
        (bn3): _BatchNormXd(1024, eps=1e-05, momentum=0.1, affine=True, track_running_stats=True)
        (relu): ReLU(inplace=True)
      )
      (17): Bottleneck(
        (conv1): Conv2d(1024, 256, kernel_size=(1, 1), stride=(1, 1), bias=False)
        (bn1): _BatchNormXd(256, eps=1e-05, momentum=0.1, affine=True, track_running_stats=True)
        (conv2): Conv2d(256, 256, kernel_size=(3, 3), stride=(1, 1), padding=(2, 2), dilation=(2, 2), bias=False)
        (bn2): _BatchNormXd(256, eps=1e-05, momentum=0.1, affine=True, track_running_stats=True)
        (conv3): Conv2d(256, 1024, kernel_size=(1, 1), stride=(1, 1), bias=False)
        (bn3): _BatchNormXd(1024, eps=1e-05, momentum=0.1, affine=True, track_running_stats=True)
        (relu): ReLU(inplace=True)
      )
      (18): Bottleneck(
        (conv1): Conv2d(1024, 256, kernel_size=(1, 1), stride=(1, 1), bias=False)
        (bn1): _BatchNormXd(256, eps=1e-05, momentum=0.1, affine=True, track_running_stats=True)
        (conv2): Conv2d(256, 256, kernel_size=(3, 3), stride=(1, 1), padding=(2, 2), dilation=(2, 2), bias=False)
        (bn2): _BatchNormXd(256, eps=1e-05, momentum=0.1, affine=True, track_running_stats=True)
        (conv3): Conv2d(256, 1024, kernel_size=(1, 1), stride=(1, 1), bias=False)
        (bn3): _BatchNormXd(1024, eps=1e-05, momentum=0.1, affine=True, track_running_stats=True)
        (relu): ReLU(inplace=True)
      )
      (19): Bottleneck(
        (conv1): Conv2d(1024, 256, kernel_size=(1, 1), stride=(1, 1), bias=False)
        (bn1): _BatchNormXd(256, eps=1e-05, momentum=0.1, affine=True, track_running_stats=True)
        (conv2): Conv2d(256, 256, kernel_size=(3, 3), stride=(1, 1), padding=(2, 2), dilation=(2, 2), bias=False)
        (bn2): _BatchNormXd(256, eps=1e-05, momentum=0.1, affine=True, track_running_stats=True)
        (conv3): Conv2d(256, 1024, kernel_size=(1, 1), stride=(1, 1), bias=False)
        (bn3): _BatchNormXd(1024, eps=1e-05, momentum=0.1, affine=True, track_running_stats=True)
        (relu): ReLU(inplace=True)
      )
      (20): Bottleneck(
        (conv1): Conv2d(1024, 256, kernel_size=(1, 1), stride=(1, 1), bias=False)
        (bn1): _BatchNormXd(256, eps=1e-05, momentum=0.1, affine=True, track_running_stats=True)
        (conv2): Conv2d(256, 256, kernel_size=(3, 3), stride=(1, 1), padding=(2, 2), dilation=(2, 2), bias=False)
        (bn2): _BatchNormXd(256, eps=1e-05, momentum=0.1, affine=True, track_running_stats=True)
        (conv3): Conv2d(256, 1024, kernel_size=(1, 1), stride=(1, 1), bias=False)
        (bn3): _BatchNormXd(1024, eps=1e-05, momentum=0.1, affine=True, track_running_stats=True)
        (relu): ReLU(inplace=True)
      )
      (21): Bottleneck(
        (conv1): Conv2d(1024, 256, kernel_size=(1, 1), stride=(1, 1), bias=False)
        (bn1): _BatchNormXd(256, eps=1e-05, momentum=0.1, affine=True, track_running_stats=True)
        (conv2): Conv2d(256, 256, kernel_size=(3, 3), stride=(1, 1), padding=(2, 2), dilation=(2, 2), bias=False)
        (bn2): _BatchNormXd(256, eps=1e-05, momentum=0.1, affine=True, track_running_stats=True)
        (conv3): Conv2d(256, 1024, kernel_size=(1, 1), stride=(1, 1), bias=False)
        (bn3): _BatchNormXd(1024, eps=1e-05, momentum=0.1, affine=True, track_running_stats=True)
        (relu): ReLU(inplace=True)
      )
      (22): Bottleneck(
        (conv1): Conv2d(1024, 256, kernel_size=(1, 1), stride=(1, 1), bias=False)
        (bn1): _BatchNormXd(256, eps=1e-05, momentum=0.1, affine=True, track_running_stats=True)
        (conv2): Conv2d(256, 256, kernel_size=(3, 3), stride=(1, 1), padding=(2, 2), dilation=(2, 2), bias=False)
        (bn2): _BatchNormXd(256, eps=1e-05, momentum=0.1, affine=True, track_running_stats=True)
        (conv3): Conv2d(256, 1024, kernel_size=(1, 1), stride=(1, 1), bias=False)
        (bn3): _BatchNormXd(1024, eps=1e-05, momentum=0.1, affine=True, track_running_stats=True)
        (relu): ReLU(inplace=True)
      )
    )
    (layer4): ResLayer(
      (0): Bottleneck(
        (conv1): Conv2d(1024, 512, kernel_size=(1, 1), stride=(1, 1), bias=False)
        (bn1): _BatchNormXd(512, eps=1e-05, momentum=0.1, affine=True, track_running_stats=True)
        (conv2): Conv2d(512, 512, kernel_size=(3, 3), stride=(1, 1), padding=(2, 2), dilation=(2, 2), bias=False)
        (bn2): _BatchNormXd(512, eps=1e-05, momentum=0.1, affine=True, track_running_stats=True)
        (conv3): Conv2d(512, 2048, kernel_size=(1, 1), stride=(1, 1), bias=False)
        (bn3): _BatchNormXd(2048, eps=1e-05, momentum=0.1, affine=True, track_running_stats=True)
        (relu): ReLU(inplace=True)
        (downsample): Sequential(
          (0): Conv2d(1024, 2048, kernel_size=(1, 1), stride=(1, 1), bias=False)
          (1): _BatchNormXd(2048, eps=1e-05, momentum=0.1, affine=True, track_running_stats=True)
        )
      )
      (1): Bottleneck(
        (conv1): Conv2d(2048, 512, kernel_size=(1, 1), stride=(1, 1), bias=False)
        (bn1): _BatchNormXd(512, eps=1e-05, momentum=0.1, affine=True, track_running_stats=True)
        (conv2): Conv2d(512, 512, kernel_size=(3, 3), stride=(1, 1), padding=(4, 4), dilation=(4, 4), bias=False)
        (bn2): _BatchNormXd(512, eps=1e-05, momentum=0.1, affine=True, track_running_stats=True)
        (conv3): Conv2d(512, 2048, kernel_size=(1, 1), stride=(1, 1), bias=False)
        (bn3): _BatchNormXd(2048, eps=1e-05, momentum=0.1, affine=True, track_running_stats=True)
        (relu): ReLU(inplace=True)
      )
      (2): Bottleneck(
        (conv1): Conv2d(2048, 512, kernel_size=(1, 1), stride=(1, 1), bias=False)
        (bn1): _BatchNormXd(512, eps=1e-05, momentum=0.1, affine=True, track_running_stats=True)
        (conv2): Conv2d(512, 512, kernel_size=(3, 3), stride=(1, 1), padding=(4, 4), dilation=(4, 4), bias=False)
        (bn2): _BatchNormXd(512, eps=1e-05, momentum=0.1, affine=True, track_running_stats=True)
        (conv3): Conv2d(512, 2048, kernel_size=(1, 1), stride=(1, 1), bias=False)
        (bn3): _BatchNormXd(2048, eps=1e-05, momentum=0.1, affine=True, track_running_stats=True)
        (relu): ReLU(inplace=True)
      )
    )
  )
  init_cfg={'type': 'Pretrained', 'checkpoint': 'open-mmlab://resnet101_v1c'}
  (decode_head): MaskClipPlusTextHead(
    input_transform=None, ignore_index=255, align_corners=False
    (loss_decode): CrossEntropyLoss()
    (decode_module): ASPPHeadV2(
      input_transform=None, ignore_index=255, align_corners=False
      (aspp_modules): ASPPModuleV2(
        (0): ConvModule(
          (conv): Conv2d(2048, 512, kernel_size=(3, 3), stride=(1, 1), padding=(6, 6), dilation=(6, 6), bias=False)
          (bn): _BatchNormXd(512, eps=1e-05, momentum=0.1, affine=True, track_running_stats=True)
          (activate): ReLU(inplace=True)
        )
        (1): ConvModule(
          (conv): Conv2d(2048, 512, kernel_size=(3, 3), stride=(1, 1), padding=(12, 12), dilation=(12, 12), bias=False)
          (bn): _BatchNormXd(512, eps=1e-05, momentum=0.1, affine=True, track_running_stats=True)
          (activate): ReLU(inplace=True)
        )
        (2): ConvModule(
          (conv): Conv2d(2048, 512, kernel_size=(3, 3), stride=(1, 1), padding=(18, 18), dilation=(18, 18), bias=False)
          (bn): _BatchNormXd(512, eps=1e-05, momentum=0.1, affine=True, track_running_stats=True)
          (activate): ReLU(inplace=True)
        )
        (3): ConvModule(
          (conv): Conv2d(2048, 512, kernel_size=(3, 3), stride=(1, 1), padding=(24, 24), dilation=(24, 24), bias=False)
          (bn): _BatchNormXd(512, eps=1e-05, momentum=0.1, affine=True, track_running_stats=True)
          (activate): ReLU(inplace=True)
        )
      )
    )
    (clip): VisionTransformer(
      (patch_embed): PatchEmbed(
        (adap_padding): AdaptivePadding()
        (projection): Conv2d(3, 768, kernel_size=(16, 16), stride=(16, 16), bias=False)
      )
      (drop_after_pos): Dropout(p=0.0, inplace=False)
      (layers): ModuleList(
        (0): TransformerEncoderLayer(
          (ln1): LayerNorm((768,), eps=1e-06, elementwise_affine=True)
          (attn): MultiheadAttention(
            (attn): MultiheadAttention(
              (out_proj): NonDynamicallyQuantizableLinear(in_features=768, out_features=768, bias=True)
            )
            (proj_drop): Dropout(p=0.0, inplace=False)
            (dropout_layer): DropPath()
          )
          (ln2): LayerNorm((768,), eps=1e-06, elementwise_affine=True)
          (ffn): FFN(
            (activate): GELU()
            (layers): Sequential(
              (0): Sequential(
                (0): Linear(in_features=768, out_features=3072, bias=True)
                (1): GELU()
                (2): Dropout(p=0.0, inplace=False)
              )
              (1): Linear(in_features=3072, out_features=768, bias=True)
              (2): Dropout(p=0.0, inplace=False)
            )
            (dropout_layer): DropPath()
          )
        )
        (1): TransformerEncoderLayer(
          (ln1): LayerNorm((768,), eps=1e-06, elementwise_affine=True)
          (attn): MultiheadAttention(
            (attn): MultiheadAttention(
              (out_proj): NonDynamicallyQuantizableLinear(in_features=768, out_features=768, bias=True)
            )
            (proj_drop): Dropout(p=0.0, inplace=False)
            (dropout_layer): DropPath()
          )
          (ln2): LayerNorm((768,), eps=1e-06, elementwise_affine=True)
          (ffn): FFN(
            (activate): GELU()
            (layers): Sequential(
              (0): Sequential(
                (0): Linear(in_features=768, out_features=3072, bias=True)
                (1): GELU()
                (2): Dropout(p=0.0, inplace=False)
              )
              (1): Linear(in_features=3072, out_features=768, bias=True)
              (2): Dropout(p=0.0, inplace=False)
            )
            (dropout_layer): DropPath()
          )
        )
        (2): TransformerEncoderLayer(
          (ln1): LayerNorm((768,), eps=1e-06, elementwise_affine=True)
          (attn): MultiheadAttention(
            (attn): MultiheadAttention(
              (out_proj): NonDynamicallyQuantizableLinear(in_features=768, out_features=768, bias=True)
            )
            (proj_drop): Dropout(p=0.0, inplace=False)
            (dropout_layer): DropPath()
          )
          (ln2): LayerNorm((768,), eps=1e-06, elementwise_affine=True)
          (ffn): FFN(
            (activate): GELU()
            (layers): Sequential(
              (0): Sequential(
                (0): Linear(in_features=768, out_features=3072, bias=True)
                (1): GELU()
                (2): Dropout(p=0.0, inplace=False)
              )
              (1): Linear(in_features=3072, out_features=768, bias=True)
              (2): Dropout(p=0.0, inplace=False)
            )
            (dropout_layer): DropPath()
          )
        )
        (3): TransformerEncoderLayer(
          (ln1): LayerNorm((768,), eps=1e-06, elementwise_affine=True)
          (attn): MultiheadAttention(
            (attn): MultiheadAttention(
              (out_proj): NonDynamicallyQuantizableLinear(in_features=768, out_features=768, bias=True)
            )
            (proj_drop): Dropout(p=0.0, inplace=False)
            (dropout_layer): DropPath()
          )
          (ln2): LayerNorm((768,), eps=1e-06, elementwise_affine=True)
          (ffn): FFN(
            (activate): GELU()
            (layers): Sequential(
              (0): Sequential(
                (0): Linear(in_features=768, out_features=3072, bias=True)
                (1): GELU()
                (2): Dropout(p=0.0, inplace=False)
              )
              (1): Linear(in_features=3072, out_features=768, bias=True)
              (2): Dropout(p=0.0, inplace=False)
            )
            (dropout_layer): DropPath()
          )
        )
        (4): TransformerEncoderLayer(
          (ln1): LayerNorm((768,), eps=1e-06, elementwise_affine=True)
          (attn): MultiheadAttention(
            (attn): MultiheadAttention(
              (out_proj): NonDynamicallyQuantizableLinear(in_features=768, out_features=768, bias=True)
            )
            (proj_drop): Dropout(p=0.0, inplace=False)
            (dropout_layer): DropPath()
          )
          (ln2): LayerNorm((768,), eps=1e-06, elementwise_affine=True)
          (ffn): FFN(
            (activate): GELU()
            (layers): Sequential(
              (0): Sequential(
                (0): Linear(in_features=768, out_features=3072, bias=True)
                (1): GELU()
                (2): Dropout(p=0.0, inplace=False)
              )
              (1): Linear(in_features=3072, out_features=768, bias=True)
              (2): Dropout(p=0.0, inplace=False)
            )
            (dropout_layer): DropPath()
          )
        )
        (5): TransformerEncoderLayer(
          (ln1): LayerNorm((768,), eps=1e-06, elementwise_affine=True)
          (attn): MultiheadAttention(
            (attn): MultiheadAttention(
              (out_proj): NonDynamicallyQuantizableLinear(in_features=768, out_features=768, bias=True)
            )
            (proj_drop): Dropout(p=0.0, inplace=False)
            (dropout_layer): DropPath()
          )
          (ln2): LayerNorm((768,), eps=1e-06, elementwise_affine=True)
          (ffn): FFN(
            (activate): GELU()
            (layers): Sequential(
              (0): Sequential(
                (0): Linear(in_features=768, out_features=3072, bias=True)
                (1): GELU()
                (2): Dropout(p=0.0, inplace=False)
              )
              (1): Linear(in_features=3072, out_features=768, bias=True)
              (2): Dropout(p=0.0, inplace=False)
            )
            (dropout_layer): DropPath()
          )
        )
        (6): TransformerEncoderLayer(
          (ln1): LayerNorm((768,), eps=1e-06, elementwise_affine=True)
          (attn): MultiheadAttention(
            (attn): MultiheadAttention(
              (out_proj): NonDynamicallyQuantizableLinear(in_features=768, out_features=768, bias=True)
            )
            (proj_drop): Dropout(p=0.0, inplace=False)
            (dropout_layer): DropPath()
          )
          (ln2): LayerNorm((768,), eps=1e-06, elementwise_affine=True)
          (ffn): FFN(
            (activate): GELU()
            (layers): Sequential(
              (0): Sequential(
                (0): Linear(in_features=768, out_features=3072, bias=True)
                (1): GELU()
                (2): Dropout(p=0.0, inplace=False)
              )
              (1): Linear(in_features=3072, out_features=768, bias=True)
              (2): Dropout(p=0.0, inplace=False)
            )
            (dropout_layer): DropPath()
          )
        )
        (7): TransformerEncoderLayer(
          (ln1): LayerNorm((768,), eps=1e-06, elementwise_affine=True)
          (attn): MultiheadAttention(
            (attn): MultiheadAttention(
              (out_proj): NonDynamicallyQuantizableLinear(in_features=768, out_features=768, bias=True)
            )
            (proj_drop): Dropout(p=0.0, inplace=False)
            (dropout_layer): DropPath()
          )
          (ln2): LayerNorm((768,), eps=1e-06, elementwise_affine=True)
          (ffn): FFN(
            (activate): GELU()
            (layers): Sequential(
              (0): Sequential(
                (0): Linear(in_features=768, out_features=3072, bias=True)
                (1): GELU()
                (2): Dropout(p=0.0, inplace=False)
              )
              (1): Linear(in_features=3072, out_features=768, bias=True)
              (2): Dropout(p=0.0, inplace=False)
            )
            (dropout_layer): DropPath()
          )
        )
        (8): TransformerEncoderLayer(
          (ln1): LayerNorm((768,), eps=1e-06, elementwise_affine=True)
          (attn): MultiheadAttention(
            (attn): MultiheadAttention(
              (out_proj): NonDynamicallyQuantizableLinear(in_features=768, out_features=768, bias=True)
            )
            (proj_drop): Dropout(p=0.0, inplace=False)
            (dropout_layer): DropPath()
          )
          (ln2): LayerNorm((768,), eps=1e-06, elementwise_affine=True)
          (ffn): FFN(
            (activate): GELU()
            (layers): Sequential(
              (0): Sequential(
                (0): Linear(in_features=768, out_features=3072, bias=True)
                (1): GELU()
                (2): Dropout(p=0.0, inplace=False)
              )
              (1): Linear(in_features=3072, out_features=768, bias=True)
              (2): Dropout(p=0.0, inplace=False)
            )
            (dropout_layer): DropPath()
          )
        )
        (9): TransformerEncoderLayer(
          (ln1): LayerNorm((768,), eps=1e-06, elementwise_affine=True)
          (attn): MultiheadAttention(
            (attn): MultiheadAttention(
              (out_proj): NonDynamicallyQuantizableLinear(in_features=768, out_features=768, bias=True)
            )
            (proj_drop): Dropout(p=0.0, inplace=False)
            (dropout_layer): DropPath()
          )
          (ln2): LayerNorm((768,), eps=1e-06, elementwise_affine=True)
          (ffn): FFN(
            (activate): GELU()
            (layers): Sequential(
              (0): Sequential(
                (0): Linear(in_features=768, out_features=3072, bias=True)
                (1): GELU()
                (2): Dropout(p=0.0, inplace=False)
              )
              (1): Linear(in_features=3072, out_features=768, bias=True)
              (2): Dropout(p=0.0, inplace=False)
            )
            (dropout_layer): DropPath()
          )
        )
        (10): TransformerEncoderLayer(
          (ln1): LayerNorm((768,), eps=1e-06, elementwise_affine=True)
          (attn): MultiheadAttention(
            (attn): MultiheadAttention(
              (out_proj): NonDynamicallyQuantizableLinear(in_features=768, out_features=768, bias=True)
            )
            (proj_drop): Dropout(p=0.0, inplace=False)
            (dropout_layer): DropPath()
          )
          (ln2): LayerNorm((768,), eps=1e-06, elementwise_affine=True)
          (ffn): FFN(
            (activate): GELU()
            (layers): Sequential(
              (0): Sequential(
                (0): Linear(in_features=768, out_features=3072, bias=True)
                (1): GELU()
                (2): Dropout(p=0.0, inplace=False)
              )
              (1): Linear(in_features=3072, out_features=768, bias=True)
              (2): Dropout(p=0.0, inplace=False)
            )
            (dropout_layer): DropPath()
          )
        )
        (11): TransformerEncoderLayer(
          (ln1): LayerNorm((768,), eps=1e-06, elementwise_affine=True)
          (attn): MultiheadAttention(
            (attn): MultiheadAttention(
              (out_proj): NonDynamicallyQuantizableLinear(in_features=768, out_features=768, bias=True)
            )
            (proj_drop): Dropout(p=0.0, inplace=False)
            (dropout_layer): DropPath()
          )
          (ln2): LayerNorm((768,), eps=1e-06, elementwise_affine=True)
          (ffn): FFN(
            (activate): GELU()
            (layers): Sequential(
              (0): Sequential(
                (0): Linear(in_features=768, out_features=3072, bias=True)
                (1): GELU()
                (2): Dropout(p=0.0, inplace=False)
              )
              (1): Linear(in_features=3072, out_features=768, bias=True)
              (2): Dropout(p=0.0, inplace=False)
            )
            (dropout_layer): DropPath()
          )
        )
      )
      (ln0): LayerNorm((768,), eps=1e-06, elementwise_affine=True)
      (ln1): LayerNorm((768,), eps=1e-06, elementwise_affine=True)
    )
    (proj): Conv2d(768, 512, kernel_size=(1, 1), stride=(1, 1), bias=False)
    (clip_model): CLIP(
      (visual): VisionTransformer(
        (conv1): Conv2d(3, 768, kernel_size=(32, 32), stride=(32, 32), bias=False)
        (ln_pre): LayerNorm((768,), eps=1e-05, elementwise_affine=True)
        (transformer): Transformer(
          (resblocks): Sequential(
            (0): ResidualAttentionBlock(
              (attn): MultiheadAttention(
                (out_proj): NonDynamicallyQuantizableLinear(in_features=768, out_features=768, bias=True)
              )
              (ln_1): LayerNorm((768,), eps=1e-05, elementwise_affine=True)
              (mlp): Sequential(
                (c_fc): Linear(in_features=768, out_features=3072, bias=True)
                (gelu): QuickGELU()
                (c_proj): Linear(in_features=3072, out_features=768, bias=True)
              )
              (ln_2): LayerNorm((768,), eps=1e-05, elementwise_affine=True)
            )
            (1): ResidualAttentionBlock(
              (attn): MultiheadAttention(
                (out_proj): NonDynamicallyQuantizableLinear(in_features=768, out_features=768, bias=True)
              )
              (ln_1): LayerNorm((768,), eps=1e-05, elementwise_affine=True)
              (mlp): Sequential(
                (c_fc): Linear(in_features=768, out_features=3072, bias=True)
                (gelu): QuickGELU()
                (c_proj): Linear(in_features=3072, out_features=768, bias=True)
              )
              (ln_2): LayerNorm((768,), eps=1e-05, elementwise_affine=True)
            )
            (2): ResidualAttentionBlock(
              (attn): MultiheadAttention(
                (out_proj): NonDynamicallyQuantizableLinear(in_features=768, out_features=768, bias=True)
              )
              (ln_1): LayerNorm((768,), eps=1e-05, elementwise_affine=True)
              (mlp): Sequential(
                (c_fc): Linear(in_features=768, out_features=3072, bias=True)
                (gelu): QuickGELU()
                (c_proj): Linear(in_features=3072, out_features=768, bias=True)
              )
              (ln_2): LayerNorm((768,), eps=1e-05, elementwise_affine=True)
            )
            (3): ResidualAttentionBlock(
              (attn): MultiheadAttention(
                (out_proj): NonDynamicallyQuantizableLinear(in_features=768, out_features=768, bias=True)
              )
              (ln_1): LayerNorm((768,), eps=1e-05, elementwise_affine=True)
              (mlp): Sequential(
                (c_fc): Linear(in_features=768, out_features=3072, bias=True)
                (gelu): QuickGELU()
                (c_proj): Linear(in_features=3072, out_features=768, bias=True)
              )
              (ln_2): LayerNorm((768,), eps=1e-05, elementwise_affine=True)
            )
            (4): ResidualAttentionBlock(
              (attn): MultiheadAttention(
                (out_proj): NonDynamicallyQuantizableLinear(in_features=768, out_features=768, bias=True)
              )
              (ln_1): LayerNorm((768,), eps=1e-05, elementwise_affine=True)
              (mlp): Sequential(
                (c_fc): Linear(in_features=768, out_features=3072, bias=True)
                (gelu): QuickGELU()
                (c_proj): Linear(in_features=3072, out_features=768, bias=True)
              )
              (ln_2): LayerNorm((768,), eps=1e-05, elementwise_affine=True)
            )
            (5): ResidualAttentionBlock(
              (attn): MultiheadAttention(
                (out_proj): NonDynamicallyQuantizableLinear(in_features=768, out_features=768, bias=True)
              )
              (ln_1): LayerNorm((768,), eps=1e-05, elementwise_affine=True)
              (mlp): Sequential(
                (c_fc): Linear(in_features=768, out_features=3072, bias=True)
                (gelu): QuickGELU()
                (c_proj): Linear(in_features=3072, out_features=768, bias=True)
              )
              (ln_2): LayerNorm((768,), eps=1e-05, elementwise_affine=True)
            )
            (6): ResidualAttentionBlock(
              (attn): MultiheadAttention(
                (out_proj): NonDynamicallyQuantizableLinear(in_features=768, out_features=768, bias=True)
              )
              (ln_1): LayerNorm((768,), eps=1e-05, elementwise_affine=True)
              (mlp): Sequential(
                (c_fc): Linear(in_features=768, out_features=3072, bias=True)
                (gelu): QuickGELU()
                (c_proj): Linear(in_features=3072, out_features=768, bias=True)
              )
              (ln_2): LayerNorm((768,), eps=1e-05, elementwise_affine=True)
            )
            (7): ResidualAttentionBlock(
              (attn): MultiheadAttention(
                (out_proj): NonDynamicallyQuantizableLinear(in_features=768, out_features=768, bias=True)
              )
              (ln_1): LayerNorm((768,), eps=1e-05, elementwise_affine=True)
              (mlp): Sequential(
                (c_fc): Linear(in_features=768, out_features=3072, bias=True)
                (gelu): QuickGELU()
                (c_proj): Linear(in_features=3072, out_features=768, bias=True)
              )
              (ln_2): LayerNorm((768,), eps=1e-05, elementwise_affine=True)
            )
            (8): ResidualAttentionBlock(
              (attn): MultiheadAttention(
                (out_proj): NonDynamicallyQuantizableLinear(in_features=768, out_features=768, bias=True)
              )
              (ln_1): LayerNorm((768,), eps=1e-05, elementwise_affine=True)
              (mlp): Sequential(
                (c_fc): Linear(in_features=768, out_features=3072, bias=True)
                (gelu): QuickGELU()
                (c_proj): Linear(in_features=3072, out_features=768, bias=True)
              )
              (ln_2): LayerNorm((768,), eps=1e-05, elementwise_affine=True)
            )
            (9): ResidualAttentionBlock(
              (attn): MultiheadAttention(
                (out_proj): NonDynamicallyQuantizableLinear(in_features=768, out_features=768, bias=True)
              )
              (ln_1): LayerNorm((768,), eps=1e-05, elementwise_affine=True)
              (mlp): Sequential(
                (c_fc): Linear(in_features=768, out_features=3072, bias=True)
                (gelu): QuickGELU()
                (c_proj): Linear(in_features=3072, out_features=768, bias=True)
              )
              (ln_2): LayerNorm((768,), eps=1e-05, elementwise_affine=True)
            )
            (10): ResidualAttentionBlock(
              (attn): MultiheadAttention(
                (out_proj): NonDynamicallyQuantizableLinear(in_features=768, out_features=768, bias=True)
              )
              (ln_1): LayerNorm((768,), eps=1e-05, elementwise_affine=True)
              (mlp): Sequential(
                (c_fc): Linear(in_features=768, out_features=3072, bias=True)
                (gelu): QuickGELU()
                (c_proj): Linear(in_features=3072, out_features=768, bias=True)
              )
              (ln_2): LayerNorm((768,), eps=1e-05, elementwise_affine=True)
            )
            (11): ResidualAttentionBlock(
              (attn): MultiheadAttention(
                (out_proj): NonDynamicallyQuantizableLinear(in_features=768, out_features=768, bias=True)
              )
              (ln_1): LayerNorm((768,), eps=1e-05, elementwise_affine=True)
              (mlp): Sequential(
                (c_fc): Linear(in_features=768, out_features=3072, bias=True)
                (gelu): QuickGELU()
                (c_proj): Linear(in_features=3072, out_features=768, bias=True)
              )
              (ln_2): LayerNorm((768,), eps=1e-05, elementwise_affine=True)
            )
          )
        )
        (ln_post): LayerNorm((768,), eps=1e-05, elementwise_affine=True)
      )
      (transformer): Transformer(
        (resblocks): Sequential(
          (0): ResidualAttentionBlock(
            (attn): MultiheadAttention(
              (out_proj): NonDynamicallyQuantizableLinear(in_features=512, out_features=512, bias=True)
            )
            (ln_1): LayerNorm((512,), eps=1e-05, elementwise_affine=True)
            (mlp): Sequential(
              (c_fc): Linear(in_features=512, out_features=2048, bias=True)
              (gelu): QuickGELU()
              (c_proj): Linear(in_features=2048, out_features=512, bias=True)
            )
            (ln_2): LayerNorm((512,), eps=1e-05, elementwise_affine=True)
          )
          (1): ResidualAttentionBlock(
            (attn): MultiheadAttention(
              (out_proj): NonDynamicallyQuantizableLinear(in_features=512, out_features=512, bias=True)
            )
            (ln_1): LayerNorm((512,), eps=1e-05, elementwise_affine=True)
            (mlp): Sequential(
              (c_fc): Linear(in_features=512, out_features=2048, bias=True)
              (gelu): QuickGELU()
              (c_proj): Linear(in_features=2048, out_features=512, bias=True)
            )
            (ln_2): LayerNorm((512,), eps=1e-05, elementwise_affine=True)
          )
          (2): ResidualAttentionBlock(
            (attn): MultiheadAttention(
              (out_proj): NonDynamicallyQuantizableLinear(in_features=512, out_features=512, bias=True)
            )
            (ln_1): LayerNorm((512,), eps=1e-05, elementwise_affine=True)
            (mlp): Sequential(
              (c_fc): Linear(in_features=512, out_features=2048, bias=True)
              (gelu): QuickGELU()
              (c_proj): Linear(in_features=2048, out_features=512, bias=True)
            )
            (ln_2): LayerNorm((512,), eps=1e-05, elementwise_affine=True)
          )
          (3): ResidualAttentionBlock(
            (attn): MultiheadAttention(
              (out_proj): NonDynamicallyQuantizableLinear(in_features=512, out_features=512, bias=True)
            )
            (ln_1): LayerNorm((512,), eps=1e-05, elementwise_affine=True)
            (mlp): Sequential(
              (c_fc): Linear(in_features=512, out_features=2048, bias=True)
              (gelu): QuickGELU()
              (c_proj): Linear(in_features=2048, out_features=512, bias=True)
            )
            (ln_2): LayerNorm((512,), eps=1e-05, elementwise_affine=True)
          )
          (4): ResidualAttentionBlock(
            (attn): MultiheadAttention(
              (out_proj): NonDynamicallyQuantizableLinear(in_features=512, out_features=512, bias=True)
            )
            (ln_1): LayerNorm((512,), eps=1e-05, elementwise_affine=True)
            (mlp): Sequential(
              (c_fc): Linear(in_features=512, out_features=2048, bias=True)
              (gelu): QuickGELU()
              (c_proj): Linear(in_features=2048, out_features=512, bias=True)
            )
            (ln_2): LayerNorm((512,), eps=1e-05, elementwise_affine=True)
          )
          (5): ResidualAttentionBlock(
            (attn): MultiheadAttention(
              (out_proj): NonDynamicallyQuantizableLinear(in_features=512, out_features=512, bias=True)
            )
            (ln_1): LayerNorm((512,), eps=1e-05, elementwise_affine=True)
            (mlp): Sequential(
              (c_fc): Linear(in_features=512, out_features=2048, bias=True)
              (gelu): QuickGELU()
              (c_proj): Linear(in_features=2048, out_features=512, bias=True)
            )
            (ln_2): LayerNorm((512,), eps=1e-05, elementwise_affine=True)
          )
          (6): ResidualAttentionBlock(
            (attn): MultiheadAttention(
              (out_proj): NonDynamicallyQuantizableLinear(in_features=512, out_features=512, bias=True)
            )
            (ln_1): LayerNorm((512,), eps=1e-05, elementwise_affine=True)
            (mlp): Sequential(
              (c_fc): Linear(in_features=512, out_features=2048, bias=True)
              (gelu): QuickGELU()
              (c_proj): Linear(in_features=2048, out_features=512, bias=True)
            )
            (ln_2): LayerNorm((512,), eps=1e-05, elementwise_affine=True)
          )
          (7): ResidualAttentionBlock(
            (attn): MultiheadAttention(
              (out_proj): NonDynamicallyQuantizableLinear(in_features=512, out_features=512, bias=True)
            )
            (ln_1): LayerNorm((512,), eps=1e-05, elementwise_affine=True)
            (mlp): Sequential(
              (c_fc): Linear(in_features=512, out_features=2048, bias=True)
              (gelu): QuickGELU()
              (c_proj): Linear(in_features=2048, out_features=512, bias=True)
            )
            (ln_2): LayerNorm((512,), eps=1e-05, elementwise_affine=True)
          )
          (8): ResidualAttentionBlock(
            (attn): MultiheadAttention(
              (out_proj): NonDynamicallyQuantizableLinear(in_features=512, out_features=512, bias=True)
            )
            (ln_1): LayerNorm((512,), eps=1e-05, elementwise_affine=True)
            (mlp): Sequential(
              (c_fc): Linear(in_features=512, out_features=2048, bias=True)
              (gelu): QuickGELU()
              (c_proj): Linear(in_features=2048, out_features=512, bias=True)
            )
            (ln_2): LayerNorm((512,), eps=1e-05, elementwise_affine=True)
          )
          (9): ResidualAttentionBlock(
            (attn): MultiheadAttention(
              (out_proj): NonDynamicallyQuantizableLinear(in_features=512, out_features=512, bias=True)
            )
            (ln_1): LayerNorm((512,), eps=1e-05, elementwise_affine=True)
            (mlp): Sequential(
              (c_fc): Linear(in_features=512, out_features=2048, bias=True)
              (gelu): QuickGELU()
              (c_proj): Linear(in_features=2048, out_features=512, bias=True)
            )
            (ln_2): LayerNorm((512,), eps=1e-05, elementwise_affine=True)
          )
          (10): ResidualAttentionBlock(
            (attn): MultiheadAttention(
              (out_proj): NonDynamicallyQuantizableLinear(in_features=512, out_features=512, bias=True)
            )
            (ln_1): LayerNorm((512,), eps=1e-05, elementwise_affine=True)
            (mlp): Sequential(
              (c_fc): Linear(in_features=512, out_features=2048, bias=True)
              (gelu): QuickGELU()
              (c_proj): Linear(in_features=2048, out_features=512, bias=True)
            )
            (ln_2): LayerNorm((512,), eps=1e-05, elementwise_affine=True)
          )
          (11): ResidualAttentionBlock(
            (attn): MultiheadAttention(
              (out_proj): NonDynamicallyQuantizableLinear(in_features=512, out_features=512, bias=True)
            )
            (ln_1): LayerNorm((512,), eps=1e-05, elementwise_affine=True)
            (mlp): Sequential(
              (c_fc): Linear(in_features=512, out_features=2048, bias=True)
              (gelu): QuickGELU()
              (c_proj): Linear(in_features=2048, out_features=512, bias=True)
            )
            (ln_2): LayerNorm((512,), eps=1e-05, elementwise_affine=True)
          )
        )
      )
      (token_embedding): Embedding(49408, 512)
      (ln_final): LayerNorm((512,), eps=1e-05, elementwise_affine=True)
    )
  )
)
2023-05-18 20:22:38,479 - mmseg - INFO - Loaded 4996 images
2023-05-18 20:22:40,348 - mmseg - INFO - Loaded 5104 images
2023-05-18 20:22:40,348 - mmseg - INFO - Start running, host: root@workspace-b4viw9u1uynb-0, work_dir: /root/MaskCLIP_SegFormer/work_dirs/anno_free/vit-dlv2-text
2023-05-18 20:22:40,349 - mmseg - INFO - Hooks will be executed in the following order:
…
