…
Initialized by user-defined `init_weights` in MaskClipPlusSegformerHead  

decode_head.clip.ln1.weight - torch.Size([768]): 
Initialized by user-defined `init_weights` in MaskClipPlusSegformerHead  

decode_head.clip.ln1.bias - torch.Size([768]): 
Initialized by user-defined `init_weights` in MaskClipPlusSegformerHead  

decode_head.proj.weight - torch.Size([512, 768, 1, 1]): 
Initialized by user-defined `init_weights` in MaskClipPlusSegformerHead  
2023-02-19 12:48:24,300 - mmseg - INFO - EncoderDecoder(
  (backbone): MixVisionTransformer(
    (layers): ModuleList(
      (0): ModuleList(
        (0): PatchEmbed(
          (projection): Conv2d(3, 64, kernel_size=(7, 7), stride=(4, 4), padding=(3, 3))
          (norm): LayerNorm((64,), eps=1e-06, elementwise_affine=True)
        )
        (1): ModuleList(
          (0): TransformerEncoderLayer(
            (norm1): LayerNorm((64,), eps=1e-06, elementwise_affine=True)
            (attn): EfficientMultiheadAttention(
              (attn): MultiheadAttention(
                (out_proj): NonDynamicallyQuantizableLinear(in_features=64, out_features=64, bias=True)
              )
              (proj_drop): Dropout(p=0.0, inplace=False)
              (dropout_layer): DropPath()
              (sr): Conv2d(64, 64, kernel_size=(8, 8), stride=(8, 8))
              (norm): LayerNorm((64,), eps=1e-06, elementwise_affine=True)
            )
            (norm2): LayerNorm((64,), eps=1e-06, elementwise_affine=True)
            (ffn): MixFFN(
              (activate): GELU()
              (layers): Sequential(
                (0): Conv2d(64, 256, kernel_size=(1, 1), stride=(1, 1))
                (1): Conv2d(256, 256, kernel_size=(3, 3), stride=(1, 1), padding=(1, 1), groups=256)
                (2): GELU()
                (3): Dropout(p=0.0, inplace=False)
                (4): Conv2d(256, 64, kernel_size=(1, 1), stride=(1, 1))
                (5): Dropout(p=0.0, inplace=False)
              )
              (dropout_layer): DropPath()
            )
          )
          (1): TransformerEncoderLayer(
            (norm1): LayerNorm((64,), eps=1e-06, elementwise_affine=True)
            (attn): EfficientMultiheadAttention(
              (attn): MultiheadAttention(
                (out_proj): NonDynamicallyQuantizableLinear(in_features=64, out_features=64, bias=True)
              )
              (proj_drop): Dropout(p=0.0, inplace=False)
              (dropout_layer): DropPath()
              (sr): Conv2d(64, 64, kernel_size=(8, 8), stride=(8, 8))
              (norm): LayerNorm((64,), eps=1e-06, elementwise_affine=True)
            )
            (norm2): LayerNorm((64,), eps=1e-06, elementwise_affine=True)
            (ffn): MixFFN(
              (activate): GELU()
              (layers): Sequential(
                (0): Conv2d(64, 256, kernel_size=(1, 1), stride=(1, 1))
                (1): Conv2d(256, 256, kernel_size=(3, 3), stride=(1, 1), padding=(1, 1), groups=256)
                (2): GELU()
                (3): Dropout(p=0.0, inplace=False)
                (4): Conv2d(256, 64, kernel_size=(1, 1), stride=(1, 1))
                (5): Dropout(p=0.0, inplace=False)
              )
              (dropout_layer): DropPath()
            )
          )
          (2): TransformerEncoderLayer(
            (norm1): LayerNorm((64,), eps=1e-06, elementwise_affine=True)
            (attn): EfficientMultiheadAttention(
              (attn): MultiheadAttention(
                (out_proj): NonDynamicallyQuantizableLinear(in_features=64, out_features=64, bias=True)
              )
              (proj_drop): Dropout(p=0.0, inplace=False)
              (dropout_layer): DropPath()
              (sr): Conv2d(64, 64, kernel_size=(8, 8), stride=(8, 8))
              (norm): LayerNorm((64,), eps=1e-06, elementwise_affine=True)
            )
            (norm2): LayerNorm((64,), eps=1e-06, elementwise_affine=True)
            (ffn): MixFFN(
              (activate): GELU()
              (layers): Sequential(
                (0): Conv2d(64, 256, kernel_size=(1, 1), stride=(1, 1))
                (1): Conv2d(256, 256, kernel_size=(3, 3), stride=(1, 1), padding=(1, 1), groups=256)
                (2): GELU()
                (3): Dropout(p=0.0, inplace=False)
                (4): Conv2d(256, 64, kernel_size=(1, 1), stride=(1, 1))
                (5): Dropout(p=0.0, inplace=False)
              )
              (dropout_layer): DropPath()
            )
          )
        )
        (2): LayerNorm((64,), eps=1e-06, elementwise_affine=True)
      )
      (1): ModuleList(
        (0): PatchEmbed(
          (projection): Conv2d(64, 128, kernel_size=(3, 3), stride=(2, 2), padding=(1, 1))
          (norm): LayerNorm((128,), eps=1e-06, elementwise_affine=True)
        )
        (1): ModuleList(
          (0): TransformerEncoderLayer(
            (norm1): LayerNorm((128,), eps=1e-06, elementwise_affine=True)
            (attn): EfficientMultiheadAttention(
              (attn): MultiheadAttention(
                (out_proj): NonDynamicallyQuantizableLinear(in_features=128, out_features=128, bias=True)
              )
              (proj_drop): Dropout(p=0.0, inplace=False)
              (dropout_layer): DropPath()
              (sr): Conv2d(128, 128, kernel_size=(4, 4), stride=(4, 4))
              (norm): LayerNorm((128,), eps=1e-06, elementwise_affine=True)
            )
            (norm2): LayerNorm((128,), eps=1e-06, elementwise_affine=True)
            (ffn): MixFFN(
              (activate): GELU()
              (layers): Sequential(
                (0): Conv2d(128, 512, kernel_size=(1, 1), stride=(1, 1))
                (1): Conv2d(512, 512, kernel_size=(3, 3), stride=(1, 1), padding=(1, 1), groups=512)
                (2): GELU()
                (3): Dropout(p=0.0, inplace=False)
                (4): Conv2d(512, 128, kernel_size=(1, 1), stride=(1, 1))
                (5): Dropout(p=0.0, inplace=False)
              )
              (dropout_layer): DropPath()
            )
          )
          (1): TransformerEncoderLayer(
            (norm1): LayerNorm((128,), eps=1e-06, elementwise_affine=True)
            (attn): EfficientMultiheadAttention(
              (attn): MultiheadAttention(
                (out_proj): NonDynamicallyQuantizableLinear(in_features=128, out_features=128, bias=True)
              )
              (proj_drop): Dropout(p=0.0, inplace=False)
              (dropout_layer): DropPath()
              (sr): Conv2d(128, 128, kernel_size=(4, 4), stride=(4, 4))
              (norm): LayerNorm((128,), eps=1e-06, elementwise_affine=True)
            )
            (norm2): LayerNorm((128,), eps=1e-06, elementwise_affine=True)
            (ffn): MixFFN(
              (activate): GELU()
              (layers): Sequential(
                (0): Conv2d(128, 512, kernel_size=(1, 1), stride=(1, 1))
                (1): Conv2d(512, 512, kernel_size=(3, 3), stride=(1, 1), padding=(1, 1), groups=512)
                (2): GELU()
                (3): Dropout(p=0.0, inplace=False)
                (4): Conv2d(512, 128, kernel_size=(1, 1), stride=(1, 1))
                (5): Dropout(p=0.0, inplace=False)
              )
              (dropout_layer): DropPath()
            )
          )
          (2): TransformerEncoderLayer(
            (norm1): LayerNorm((128,), eps=1e-06, elementwise_affine=True)
            (attn): EfficientMultiheadAttention(
              (attn): MultiheadAttention(
                (out_proj): NonDynamicallyQuantizableLinear(in_features=128, out_features=128, bias=True)
              )
              (proj_drop): Dropout(p=0.0, inplace=False)
              (dropout_layer): DropPath()
              (sr): Conv2d(128, 128, kernel_size=(4, 4), stride=(4, 4))
              (norm): LayerNorm((128,), eps=1e-06, elementwise_affine=True)
            )
            (norm2): LayerNorm((128,), eps=1e-06, elementwise_affine=True)
            (ffn): MixFFN(
              (activate): GELU()
              (layers): Sequential(
                (0): Conv2d(128, 512, kernel_size=(1, 1), stride=(1, 1))
                (1): Conv2d(512, 512, kernel_size=(3, 3), stride=(1, 1), padding=(1, 1), groups=512)
                (2): GELU()
                (3): Dropout(p=0.0, inplace=False)
                (4): Conv2d(512, 128, kernel_size=(1, 1), stride=(1, 1))
                (5): Dropout(p=0.0, inplace=False)
              )
              (dropout_layer): DropPath()
            )
          )
          (3): TransformerEncoderLayer(
            (norm1): LayerNorm((128,), eps=1e-06, elementwise_affine=True)
            (attn): EfficientMultiheadAttention(
              (attn): MultiheadAttention(
                (out_proj): NonDynamicallyQuantizableLinear(in_features=128, out_features=128, bias=True)
              )
              (proj_drop): Dropout(p=0.0, inplace=False)
              (dropout_layer): DropPath()
              (sr): Conv2d(128, 128, kernel_size=(4, 4), stride=(4, 4))
              (norm): LayerNorm((128,), eps=1e-06, elementwise_affine=True)
            )
            (norm2): LayerNorm((128,), eps=1e-06, elementwise_affine=True)
            (ffn): MixFFN(
              (activate): GELU()
              (layers): Sequential(
                (0): Conv2d(128, 512, kernel_size=(1, 1), stride=(1, 1))
                (1): Conv2d(512, 512, kernel_size=(3, 3), stride=(1, 1), padding=(1, 1), groups=512)
                (2): GELU()
                (3): Dropout(p=0.0, inplace=False)
                (4): Conv2d(512, 128, kernel_size=(1, 1), stride=(1, 1))
                (5): Dropout(p=0.0, inplace=False)
              )
              (dropout_layer): DropPath()
            )
          )
          (4): TransformerEncoderLayer(
            (norm1): LayerNorm((128,), eps=1e-06, elementwise_affine=True)
            (attn): EfficientMultiheadAttention(
              (attn): MultiheadAttention(
                (out_proj): NonDynamicallyQuantizableLinear(in_features=128, out_features=128, bias=True)
              )
              (proj_drop): Dropout(p=0.0, inplace=False)
              (dropout_layer): DropPath()
              (sr): Conv2d(128, 128, kernel_size=(4, 4), stride=(4, 4))
              (norm): LayerNorm((128,), eps=1e-06, elementwise_affine=True)
            )
            (norm2): LayerNorm((128,), eps=1e-06, elementwise_affine=True)
            (ffn): MixFFN(
              (activate): GELU()
              (layers): Sequential(
                (0): Conv2d(128, 512, kernel_size=(1, 1), stride=(1, 1))
                (1): Conv2d(512, 512, kernel_size=(3, 3), stride=(1, 1), padding=(1, 1), groups=512)
                (2): GELU()
                (3): Dropout(p=0.0, inplace=False)
                (4): Conv2d(512, 128, kernel_size=(1, 1), stride=(1, 1))
                (5): Dropout(p=0.0, inplace=False)
              )
              (dropout_layer): DropPath()
            )
          )
          (5): TransformerEncoderLayer(
            (norm1): LayerNorm((128,), eps=1e-06, elementwise_affine=True)
            (attn): EfficientMultiheadAttention(
              (attn): MultiheadAttention(
                (out_proj): NonDynamicallyQuantizableLinear(in_features=128, out_features=128, bias=True)
              )
              (proj_drop): Dropout(p=0.0, inplace=False)
              (dropout_layer): DropPath()
              (sr): Conv2d(128, 128, kernel_size=(4, 4), stride=(4, 4))
              (norm): LayerNorm((128,), eps=1e-06, elementwise_affine=True)
            )
            (norm2): LayerNorm((128,), eps=1e-06, elementwise_affine=True)
            (ffn): MixFFN(
              (activate): GELU()
              (layers): Sequential(
                (0): Conv2d(128, 512, kernel_size=(1, 1), stride=(1, 1))
                (1): Conv2d(512, 512, kernel_size=(3, 3), stride=(1, 1), padding=(1, 1), groups=512)
                (2): GELU()
                (3): Dropout(p=0.0, inplace=False)
                (4): Conv2d(512, 128, kernel_size=(1, 1), stride=(1, 1))
                (5): Dropout(p=0.0, inplace=False)
              )
              (dropout_layer): DropPath()
            )
          )
        )
        (2): LayerNorm((128,), eps=1e-06, elementwise_affine=True)
      )
      (2): ModuleList(
        (0): PatchEmbed(
          (projection): Conv2d(128, 320, kernel_size=(3, 3), stride=(2, 2), padding=(1, 1))
          (norm): LayerNorm((320,), eps=1e-06, elementwise_affine=True)
        )
        (1): ModuleList(
          (0): TransformerEncoderLayer(
            (norm1): LayerNorm((320,), eps=1e-06, elementwise_affine=True)
            (attn): EfficientMultiheadAttention(
              (attn): MultiheadAttention(
                (out_proj): NonDynamicallyQuantizableLinear(in_features=320, out_features=320, bias=True)
              )
              (proj_drop): Dropout(p=0.0, inplace=False)
              (dropout_layer): DropPath()
              (sr): Conv2d(320, 320, kernel_size=(2, 2), stride=(2, 2))
              (norm): LayerNorm((320,), eps=1e-06, elementwise_affine=True)
            )
            (norm2): LayerNorm((320,), eps=1e-06, elementwise_affine=True)
            (ffn): MixFFN(
              (activate): GELU()
              (layers): Sequential(
                (0): Conv2d(320, 1280, kernel_size=(1, 1), stride=(1, 1))
                (1): Conv2d(1280, 1280, kernel_size=(3, 3), stride=(1, 1), padding=(1, 1), groups=1280)
                (2): GELU()
                (3): Dropout(p=0.0, inplace=False)
                (4): Conv2d(1280, 320, kernel_size=(1, 1), stride=(1, 1))
                (5): Dropout(p=0.0, inplace=False)
              )
              (dropout_layer): DropPath()
            )
          )
          (1): TransformerEncoderLayer(
            (norm1): LayerNorm((320,), eps=1e-06, elementwise_affine=True)
            (attn): EfficientMultiheadAttention(
              (attn): MultiheadAttention(
                (out_proj): NonDynamicallyQuantizableLinear(in_features=320, out_features=320, bias=True)
              )
              (proj_drop): Dropout(p=0.0, inplace=False)
              (dropout_layer): DropPath()
              (sr): Conv2d(320, 320, kernel_size=(2, 2), stride=(2, 2))
              (norm): LayerNorm((320,), eps=1e-06, elementwise_affine=True)
            )
            (norm2): LayerNorm((320,), eps=1e-06, elementwise_affine=True)
            (ffn): MixFFN(
              (activate): GELU()
              (layers): Sequential(
                (0): Conv2d(320, 1280, kernel_size=(1, 1), stride=(1, 1))
                (1): Conv2d(1280, 1280, kernel_size=(3, 3), stride=(1, 1), padding=(1, 1), groups=1280)
                (2): GELU()
                (3): Dropout(p=0.0, inplace=False)
                (4): Conv2d(1280, 320, kernel_size=(1, 1), stride=(1, 1))
                (5): Dropout(p=0.0, inplace=False)
              )
              (dropout_layer): DropPath()
            )
          )
          (2): TransformerEncoderLayer(
            (norm1): LayerNorm((320,), eps=1e-06, elementwise_affine=True)
            (attn): EfficientMultiheadAttention(
              (attn): MultiheadAttention(
                (out_proj): NonDynamicallyQuantizableLinear(in_features=320, out_features=320, bias=True)
              )
              (proj_drop): Dropout(p=0.0, inplace=False)
              (dropout_layer): DropPath()
              (sr): Conv2d(320, 320, kernel_size=(2, 2), stride=(2, 2))
              (norm): LayerNorm((320,), eps=1e-06, elementwise_affine=True)
            )
            (norm2): LayerNorm((320,), eps=1e-06, elementwise_affine=True)
            (ffn): MixFFN(
              (activate): GELU()
              (layers): Sequential(
                (0): Conv2d(320, 1280, kernel_size=(1, 1), stride=(1, 1))
                (1): Conv2d(1280, 1280, kernel_size=(3, 3), stride=(1, 1), padding=(1, 1), groups=1280)
                (2): GELU()
                (3): Dropout(p=0.0, inplace=False)
                (4): Conv2d(1280, 320, kernel_size=(1, 1), stride=(1, 1))
                (5): Dropout(p=0.0, inplace=False)
              )
              (dropout_layer): DropPath()
            )
          )
          (3): TransformerEncoderLayer(
            (norm1): LayerNorm((320,), eps=1e-06, elementwise_affine=True)
            (attn): EfficientMultiheadAttention(
              (attn): MultiheadAttention(
                (out_proj): NonDynamicallyQuantizableLinear(in_features=320, out_features=320, bias=True)
              )
              (proj_drop): Dropout(p=0.0, inplace=False)
              (dropout_layer): DropPath()
              (sr): Conv2d(320, 320, kernel_size=(2, 2), stride=(2, 2))
              (norm): LayerNorm((320,), eps=1e-06, elementwise_affine=True)
            )
            (norm2): LayerNorm((320,), eps=1e-06, elementwise_affine=True)
            (ffn): MixFFN(
              (activate): GELU()
              (layers): Sequential(
                (0): Conv2d(320, 1280, kernel_size=(1, 1), stride=(1, 1))
                (1): Conv2d(1280, 1280, kernel_size=(3, 3), stride=(1, 1), padding=(1, 1), groups=1280)
                (2): GELU()
                (3): Dropout(p=0.0, inplace=False)
                (4): Conv2d(1280, 320, kernel_size=(1, 1), stride=(1, 1))
                (5): Dropout(p=0.0, inplace=False)
              )
              (dropout_layer): DropPath()
            )
          )
          (4): TransformerEncoderLayer(
            (norm1): LayerNorm((320,), eps=1e-06, elementwise_affine=True)
            (attn): EfficientMultiheadAttention(
              (attn): MultiheadAttention(
                (out_proj): NonDynamicallyQuantizableLinear(in_features=320, out_features=320, bias=True)
              )
              (proj_drop): Dropout(p=0.0, inplace=False)
              (dropout_layer): DropPath()
              (sr): Conv2d(320, 320, kernel_size=(2, 2), stride=(2, 2))
              (norm): LayerNorm((320,), eps=1e-06, elementwise_affine=True)
            )
            (norm2): LayerNorm((320,), eps=1e-06, elementwise_affine=True)
            (ffn): MixFFN(
              (activate): GELU()
              (layers): Sequential(
                (0): Conv2d(320, 1280, kernel_size=(1, 1), stride=(1, 1))
                (1): Conv2d(1280, 1280, kernel_size=(3, 3), stride=(1, 1), padding=(1, 1), groups=1280)
                (2): GELU()
                (3): Dropout(p=0.0, inplace=False)
                (4): Conv2d(1280, 320, kernel_size=(1, 1), stride=(1, 1))
                (5): Dropout(p=0.0, inplace=False)
              )
              (dropout_layer): DropPath()
            )
          )
          (5): TransformerEncoderLayer(
            (norm1): LayerNorm((320,), eps=1e-06, elementwise_affine=True)
            (attn): EfficientMultiheadAttention(
              (attn): MultiheadAttention(
                (out_proj): NonDynamicallyQuantizableLinear(in_features=320, out_features=320, bias=True)
              )
              (proj_drop): Dropout(p=0.0, inplace=False)
              (dropout_layer): DropPath()
              (sr): Conv2d(320, 320, kernel_size=(2, 2), stride=(2, 2))
              (norm): LayerNorm((320,), eps=1e-06, elementwise_affine=True)
            )
            (norm2): LayerNorm((320,), eps=1e-06, elementwise_affine=True)
            (ffn): MixFFN(
              (activate): GELU()
              (layers): Sequential(
                (0): Conv2d(320, 1280, kernel_size=(1, 1), stride=(1, 1))
                (1): Conv2d(1280, 1280, kernel_size=(3, 3), stride=(1, 1), padding=(1, 1), groups=1280)
                (2): GELU()
                (3): Dropout(p=0.0, inplace=False)
                (4): Conv2d(1280, 320, kernel_size=(1, 1), stride=(1, 1))
                (5): Dropout(p=0.0, inplace=False)
              )
              (dropout_layer): DropPath()
            )
          )
          (6): TransformerEncoderLayer(
            (norm1): LayerNorm((320,), eps=1e-06, elementwise_affine=True)
            (attn): EfficientMultiheadAttention(
              (attn): MultiheadAttention(
                (out_proj): NonDynamicallyQuantizableLinear(in_features=320, out_features=320, bias=True)
              )
              (proj_drop): Dropout(p=0.0, inplace=False)
              (dropout_layer): DropPath()
              (sr): Conv2d(320, 320, kernel_size=(2, 2), stride=(2, 2))
              (norm): LayerNorm((320,), eps=1e-06, elementwise_affine=True)
            )
            (norm2): LayerNorm((320,), eps=1e-06, elementwise_affine=True)
            (ffn): MixFFN(
              (activate): GELU()
              (layers): Sequential(
                (0): Conv2d(320, 1280, kernel_size=(1, 1), stride=(1, 1))
                (1): Conv2d(1280, 1280, kernel_size=(3, 3), stride=(1, 1), padding=(1, 1), groups=1280)
                (2): GELU()
                (3): Dropout(p=0.0, inplace=False)
                (4): Conv2d(1280, 320, kernel_size=(1, 1), stride=(1, 1))
                (5): Dropout(p=0.0, inplace=False)
              )
              (dropout_layer): DropPath()
            )
          )
          (7): TransformerEncoderLayer(
            (norm1): LayerNorm((320,), eps=1e-06, elementwise_affine=True)
            (attn): EfficientMultiheadAttention(
              (attn): MultiheadAttention(
                (out_proj): NonDynamicallyQuantizableLinear(in_features=320, out_features=320, bias=True)
              )
              (proj_drop): Dropout(p=0.0, inplace=False)
              (dropout_layer): DropPath()
              (sr): Conv2d(320, 320, kernel_size=(2, 2), stride=(2, 2))
              (norm): LayerNorm((320,), eps=1e-06, elementwise_affine=True)
            )
            (norm2): LayerNorm((320,), eps=1e-06, elementwise_affine=True)
            (ffn): MixFFN(
              (activate): GELU()
              (layers): Sequential(
                (0): Conv2d(320, 1280, kernel_size=(1, 1), stride=(1, 1))
                (1): Conv2d(1280, 1280, kernel_size=(3, 3), stride=(1, 1), padding=(1, 1), groups=1280)
                (2): GELU()
                (3): Dropout(p=0.0, inplace=False)
                (4): Conv2d(1280, 320, kernel_size=(1, 1), stride=(1, 1))
                (5): Dropout(p=0.0, inplace=False)
              )
              (dropout_layer): DropPath()
            )
          )
          (8): TransformerEncoderLayer(
            (norm1): LayerNorm((320,), eps=1e-06, elementwise_affine=True)
            (attn): EfficientMultiheadAttention(
              (attn): MultiheadAttention(
                (out_proj): NonDynamicallyQuantizableLinear(in_features=320, out_features=320, bias=True)
              )
              (proj_drop): Dropout(p=0.0, inplace=False)
              (dropout_layer): DropPath()
              (sr): Conv2d(320, 320, kernel_size=(2, 2), stride=(2, 2))
              (norm): LayerNorm((320,), eps=1e-06, elementwise_affine=True)
            )
            (norm2): LayerNorm((320,), eps=1e-06, elementwise_affine=True)
            (ffn): MixFFN(
              (activate): GELU()
              (layers): Sequential(
                (0): Conv2d(320, 1280, kernel_size=(1, 1), stride=(1, 1))
                (1): Conv2d(1280, 1280, kernel_size=(3, 3), stride=(1, 1), padding=(1, 1), groups=1280)
                (2): GELU()
                (3): Dropout(p=0.0, inplace=False)
                (4): Conv2d(1280, 320, kernel_size=(1, 1), stride=(1, 1))
                (5): Dropout(p=0.0, inplace=False)
              )
              (dropout_layer): DropPath()
            )
          )
          (9): TransformerEncoderLayer(
            (norm1): LayerNorm((320,), eps=1e-06, elementwise_affine=True)
            (attn): EfficientMultiheadAttention(
              (attn): MultiheadAttention(
                (out_proj): NonDynamicallyQuantizableLinear(in_features=320, out_features=320, bias=True)
              )
              (proj_drop): Dropout(p=0.0, inplace=False)
              (dropout_layer): DropPath()
              (sr): Conv2d(320, 320, kernel_size=(2, 2), stride=(2, 2))
              (norm): LayerNorm((320,), eps=1e-06, elementwise_affine=True)
            )
            (norm2): LayerNorm((320,), eps=1e-06, elementwise_affine=True)
            (ffn): MixFFN(
              (activate): GELU()
              (layers): Sequential(
                (0): Conv2d(320, 1280, kernel_size=(1, 1), stride=(1, 1))
                (1): Conv2d(1280, 1280, kernel_size=(3, 3), stride=(1, 1), padding=(1, 1), groups=1280)
                (2): GELU()
                (3): Dropout(p=0.0, inplace=False)
                (4): Conv2d(1280, 320, kernel_size=(1, 1), stride=(1, 1))
                (5): Dropout(p=0.0, inplace=False)
              )
              (dropout_layer): DropPath()
            )
          )
          (10): TransformerEncoderLayer(
            (norm1): LayerNorm((320,), eps=1e-06, elementwise_affine=True)
            (attn): EfficientMultiheadAttention(
              (attn): MultiheadAttention(
                (out_proj): NonDynamicallyQuantizableLinear(in_features=320, out_features=320, bias=True)
              )
              (proj_drop): Dropout(p=0.0, inplace=False)
              (dropout_layer): DropPath()
              (sr): Conv2d(320, 320, kernel_size=(2, 2), stride=(2, 2))
              (norm): LayerNorm((320,), eps=1e-06, elementwise_affine=True)
            )
            (norm2): LayerNorm((320,), eps=1e-06, elementwise_affine=True)
            (ffn): MixFFN(
              (activate): GELU()
              (layers): Sequential(
                (0): Conv2d(320, 1280, kernel_size=(1, 1), stride=(1, 1))
                (1): Conv2d(1280, 1280, kernel_size=(3, 3), stride=(1, 1), padding=(1, 1), groups=1280)
                (2): GELU()
                (3): Dropout(p=0.0, inplace=False)
                (4): Conv2d(1280, 320, kernel_size=(1, 1), stride=(1, 1))
                (5): Dropout(p=0.0, inplace=False)
              )
              (dropout_layer): DropPath()
            )
          )
          (11): TransformerEncoderLayer(
            (norm1): LayerNorm((320,), eps=1e-06, elementwise_affine=True)
            (attn): EfficientMultiheadAttention(
              (attn): MultiheadAttention(
                (out_proj): NonDynamicallyQuantizableLinear(in_features=320, out_features=320, bias=True)
              )
              (proj_drop): Dropout(p=0.0, inplace=False)
              (dropout_layer): DropPath()
              (sr): Conv2d(320, 320, kernel_size=(2, 2), stride=(2, 2))
              (norm): LayerNorm((320,), eps=1e-06, elementwise_affine=True)
            )
            (norm2): LayerNorm((320,), eps=1e-06, elementwise_affine=True)
            (ffn): MixFFN(
              (activate): GELU()
              (layers): Sequential(
                (0): Conv2d(320, 1280, kernel_size=(1, 1), stride=(1, 1))
                (1): Conv2d(1280, 1280, kernel_size=(3, 3), stride=(1, 1), padding=(1, 1), groups=1280)
                (2): GELU()
                (3): Dropout(p=0.0, inplace=False)
                (4): Conv2d(1280, 320, kernel_size=(1, 1), stride=(1, 1))
                (5): Dropout(p=0.0, inplace=False)
              )
              (dropout_layer): DropPath()
            )
          )
          (12): TransformerEncoderLayer(
            (norm1): LayerNorm((320,), eps=1e-06, elementwise_affine=True)
            (attn): EfficientMultiheadAttention(
              (attn): MultiheadAttention(
                (out_proj): NonDynamicallyQuantizableLinear(in_features=320, out_features=320, bias=True)
              )
              (proj_drop): Dropout(p=0.0, inplace=False)
              (dropout_layer): DropPath()
              (sr): Conv2d(320, 320, kernel_size=(2, 2), stride=(2, 2))
              (norm): LayerNorm((320,), eps=1e-06, elementwise_affine=True)
            )
            (norm2): LayerNorm((320,), eps=1e-06, elementwise_affine=True)
            (ffn): MixFFN(
              (activate): GELU()
              (layers): Sequential(
                (0): Conv2d(320, 1280, kernel_size=(1, 1), stride=(1, 1))
                (1): Conv2d(1280, 1280, kernel_size=(3, 3), stride=(1, 1), padding=(1, 1), groups=1280)
                (2): GELU()
                (3): Dropout(p=0.0, inplace=False)
                (4): Conv2d(1280, 320, kernel_size=(1, 1), stride=(1, 1))
                (5): Dropout(p=0.0, inplace=False)
              )
              (dropout_layer): DropPath()
            )
          )
          (13): TransformerEncoderLayer(
            (norm1): LayerNorm((320,), eps=1e-06, elementwise_affine=True)
            (attn): EfficientMultiheadAttention(
              (attn): MultiheadAttention(
                (out_proj): NonDynamicallyQuantizableLinear(in_features=320, out_features=320, bias=True)
              )
              (proj_drop): Dropout(p=0.0, inplace=False)
              (dropout_layer): DropPath()
              (sr): Conv2d(320, 320, kernel_size=(2, 2), stride=(2, 2))
              (norm): LayerNorm((320,), eps=1e-06, elementwise_affine=True)
            )
            (norm2): LayerNorm((320,), eps=1e-06, elementwise_affine=True)
            (ffn): MixFFN(
              (activate): GELU()
              (layers): Sequential(
                (0): Conv2d(320, 1280, kernel_size=(1, 1), stride=(1, 1))
                (1): Conv2d(1280, 1280, kernel_size=(3, 3), stride=(1, 1), padding=(1, 1), groups=1280)
                (2): GELU()
                (3): Dropout(p=0.0, inplace=False)
                (4): Conv2d(1280, 320, kernel_size=(1, 1), stride=(1, 1))
                (5): Dropout(p=0.0, inplace=False)
              )
              (dropout_layer): DropPath()
            )
          )
          (14): TransformerEncoderLayer(
            (norm1): LayerNorm((320,), eps=1e-06, elementwise_affine=True)
            (attn): EfficientMultiheadAttention(
              (attn): MultiheadAttention(
                (out_proj): NonDynamicallyQuantizableLinear(in_features=320, out_features=320, bias=True)
              )
              (proj_drop): Dropout(p=0.0, inplace=False)
              (dropout_layer): DropPath()
              (sr): Conv2d(320, 320, kernel_size=(2, 2), stride=(2, 2))
              (norm): LayerNorm((320,), eps=1e-06, elementwise_affine=True)
            )
            (norm2): LayerNorm((320,), eps=1e-06, elementwise_affine=True)
            (ffn): MixFFN(
              (activate): GELU()
              (layers): Sequential(
                (0): Conv2d(320, 1280, kernel_size=(1, 1), stride=(1, 1))
                (1): Conv2d(1280, 1280, kernel_size=(3, 3), stride=(1, 1), padding=(1, 1), groups=1280)
                (2): GELU()
                (3): Dropout(p=0.0, inplace=False)
                (4): Conv2d(1280, 320, kernel_size=(1, 1), stride=(1, 1))
                (5): Dropout(p=0.0, inplace=False)
              )
              (dropout_layer): DropPath()
            )
          )
          (15): TransformerEncoderLayer(
            (norm1): LayerNorm((320,), eps=1e-06, elementwise_affine=True)
            (attn): EfficientMultiheadAttention(
              (attn): MultiheadAttention(
                (out_proj): NonDynamicallyQuantizableLinear(in_features=320, out_features=320, bias=True)
              )
              (proj_drop): Dropout(p=0.0, inplace=False)
              (dropout_layer): DropPath()
              (sr): Conv2d(320, 320, kernel_size=(2, 2), stride=(2, 2))
              (norm): LayerNorm((320,), eps=1e-06, elementwise_affine=True)
            )
            (norm2): LayerNorm((320,), eps=1e-06, elementwise_affine=True)
            (ffn): MixFFN(
              (activate): GELU()
              (layers): Sequential(
                (0): Conv2d(320, 1280, kernel_size=(1, 1), stride=(1, 1))
                (1): Conv2d(1280, 1280, kernel_size=(3, 3), stride=(1, 1), padding=(1, 1), groups=1280)
                (2): GELU()
                (3): Dropout(p=0.0, inplace=False)
                (4): Conv2d(1280, 320, kernel_size=(1, 1), stride=(1, 1))
                (5): Dropout(p=0.0, inplace=False)
              )
              (dropout_layer): DropPath()
            )
          )
          (16): TransformerEncoderLayer(
            (norm1): LayerNorm((320,), eps=1e-06, elementwise_affine=True)
            (attn): EfficientMultiheadAttention(
              (attn): MultiheadAttention(
                (out_proj): NonDynamicallyQuantizableLinear(in_features=320, out_features=320, bias=True)
              )
              (proj_drop): Dropout(p=0.0, inplace=False)
              (dropout_layer): DropPath()
              (sr): Conv2d(320, 320, kernel_size=(2, 2), stride=(2, 2))
              (norm): LayerNorm((320,), eps=1e-06, elementwise_affine=True)
            )
            (norm2): LayerNorm((320,), eps=1e-06, elementwise_affine=True)
            (ffn): MixFFN(
              (activate): GELU()
              (layers): Sequential(
                (0): Conv2d(320, 1280, kernel_size=(1, 1), stride=(1, 1))
                (1): Conv2d(1280, 1280, kernel_size=(3, 3), stride=(1, 1), padding=(1, 1), groups=1280)
                (2): GELU()
                (3): Dropout(p=0.0, inplace=False)
                (4): Conv2d(1280, 320, kernel_size=(1, 1), stride=(1, 1))
                (5): Dropout(p=0.0, inplace=False)
              )
              (dropout_layer): DropPath()
            )
          )
          (17): TransformerEncoderLayer(
            (norm1): LayerNorm((320,), eps=1e-06, elementwise_affine=True)
            (attn): EfficientMultiheadAttention(
              (attn): MultiheadAttention(
                (out_proj): NonDynamicallyQuantizableLinear(in_features=320, out_features=320, bias=True)
              )
              (proj_drop): Dropout(p=0.0, inplace=False)
              (dropout_layer): DropPath()
              (sr): Conv2d(320, 320, kernel_size=(2, 2), stride=(2, 2))
              (norm): LayerNorm((320,), eps=1e-06, elementwise_affine=True)
            )
            (norm2): LayerNorm((320,), eps=1e-06, elementwise_affine=True)
            (ffn): MixFFN(
              (activate): GELU()
              (layers): Sequential(
                (0): Conv2d(320, 1280, kernel_size=(1, 1), stride=(1, 1))
                (1): Conv2d(1280, 1280, kernel_size=(3, 3), stride=(1, 1), padding=(1, 1), groups=1280)
                (2): GELU()
                (3): Dropout(p=0.0, inplace=False)
                (4): Conv2d(1280, 320, kernel_size=(1, 1), stride=(1, 1))
                (5): Dropout(p=0.0, inplace=False)
              )
              (dropout_layer): DropPath()
            )
          )
          (18): TransformerEncoderLayer(
            (norm1): LayerNorm((320,), eps=1e-06, elementwise_affine=True)
            (attn): EfficientMultiheadAttention(
              (attn): MultiheadAttention(
                (out_proj): NonDynamicallyQuantizableLinear(in_features=320, out_features=320, bias=True)
              )
              (proj_drop): Dropout(p=0.0, inplace=False)
              (dropout_layer): DropPath()
              (sr): Conv2d(320, 320, kernel_size=(2, 2), stride=(2, 2))
              (norm): LayerNorm((320,), eps=1e-06, elementwise_affine=True)
            )
            (norm2): LayerNorm((320,), eps=1e-06, elementwise_affine=True)
            (ffn): MixFFN(
              (activate): GELU()
              (layers): Sequential(
                (0): Conv2d(320, 1280, kernel_size=(1, 1), stride=(1, 1))
                (1): Conv2d(1280, 1280, kernel_size=(3, 3), stride=(1, 1), padding=(1, 1), groups=1280)
                (2): GELU()
                (3): Dropout(p=0.0, inplace=False)
                (4): Conv2d(1280, 320, kernel_size=(1, 1), stride=(1, 1))
                (5): Dropout(p=0.0, inplace=False)
              )
              (dropout_layer): DropPath()
            )
          )
          (19): TransformerEncoderLayer(
            (norm1): LayerNorm((320,), eps=1e-06, elementwise_affine=True)
            (attn): EfficientMultiheadAttention(
              (attn): MultiheadAttention(
                (out_proj): NonDynamicallyQuantizableLinear(in_features=320, out_features=320, bias=True)
              )
              (proj_drop): Dropout(p=0.0, inplace=False)
              (dropout_layer): DropPath()
              (sr): Conv2d(320, 320, kernel_size=(2, 2), stride=(2, 2))
              (norm): LayerNorm((320,), eps=1e-06, elementwise_affine=True)
            )
            (norm2): LayerNorm((320,), eps=1e-06, elementwise_affine=True)
            (ffn): MixFFN(
              (activate): GELU()
              (layers): Sequential(
                (0): Conv2d(320, 1280, kernel_size=(1, 1), stride=(1, 1))
                (1): Conv2d(1280, 1280, kernel_size=(3, 3), stride=(1, 1), padding=(1, 1), groups=1280)
                (2): GELU()
                (3): Dropout(p=0.0, inplace=False)
                (4): Conv2d(1280, 320, kernel_size=(1, 1), stride=(1, 1))
                (5): Dropout(p=0.0, inplace=False)
              )
              (dropout_layer): DropPath()
            )
          )
          (20): TransformerEncoderLayer(
            (norm1): LayerNorm((320,), eps=1e-06, elementwise_affine=True)
            (attn): EfficientMultiheadAttention(
              (attn): MultiheadAttention(
                (out_proj): NonDynamicallyQuantizableLinear(in_features=320, out_features=320, bias=True)
              )
              (proj_drop): Dropout(p=0.0, inplace=False)
              (dropout_layer): DropPath()
              (sr): Conv2d(320, 320, kernel_size=(2, 2), stride=(2, 2))
              (norm): LayerNorm((320,), eps=1e-06, elementwise_affine=True)
            )
            (norm2): LayerNorm((320,), eps=1e-06, elementwise_affine=True)
            (ffn): MixFFN(
              (activate): GELU()
              (layers): Sequential(
                (0): Conv2d(320, 1280, kernel_size=(1, 1), stride=(1, 1))
                (1): Conv2d(1280, 1280, kernel_size=(3, 3), stride=(1, 1), padding=(1, 1), groups=1280)
                (2): GELU()
                (3): Dropout(p=0.0, inplace=False)
                (4): Conv2d(1280, 320, kernel_size=(1, 1), stride=(1, 1))
                (5): Dropout(p=0.0, inplace=False)
              )
              (dropout_layer): DropPath()
            )
          )
          (21): TransformerEncoderLayer(
            (norm1): LayerNorm((320,), eps=1e-06, elementwise_affine=True)
            (attn): EfficientMultiheadAttention(
              (attn): MultiheadAttention(
                (out_proj): NonDynamicallyQuantizableLinear(in_features=320, out_features=320, bias=True)
              )
              (proj_drop): Dropout(p=0.0, inplace=False)
              (dropout_layer): DropPath()
              (sr): Conv2d(320, 320, kernel_size=(2, 2), stride=(2, 2))
              (norm): LayerNorm((320,), eps=1e-06, elementwise_affine=True)
            )
            (norm2): LayerNorm((320,), eps=1e-06, elementwise_affine=True)
            (ffn): MixFFN(
              (activate): GELU()
              (layers): Sequential(
                (0): Conv2d(320, 1280, kernel_size=(1, 1), stride=(1, 1))
                (1): Conv2d(1280, 1280, kernel_size=(3, 3), stride=(1, 1), padding=(1, 1), groups=1280)
                (2): GELU()
                (3): Dropout(p=0.0, inplace=False)
                (4): Conv2d(1280, 320, kernel_size=(1, 1), stride=(1, 1))
                (5): Dropout(p=0.0, inplace=False)
              )
              (dropout_layer): DropPath()
            )
          )
          (22): TransformerEncoderLayer(
            (norm1): LayerNorm((320,), eps=1e-06, elementwise_affine=True)
            (attn): EfficientMultiheadAttention(
              (attn): MultiheadAttention(
                (out_proj): NonDynamicallyQuantizableLinear(in_features=320, out_features=320, bias=True)
              )
              (proj_drop): Dropout(p=0.0, inplace=False)
              (dropout_layer): DropPath()
              (sr): Conv2d(320, 320, kernel_size=(2, 2), stride=(2, 2))
              (norm): LayerNorm((320,), eps=1e-06, elementwise_affine=True)
            )
            (norm2): LayerNorm((320,), eps=1e-06, elementwise_affine=True)
            (ffn): MixFFN(
              (activate): GELU()
              (layers): Sequential(
                (0): Conv2d(320, 1280, kernel_size=(1, 1), stride=(1, 1))
                (1): Conv2d(1280, 1280, kernel_size=(3, 3), stride=(1, 1), padding=(1, 1), groups=1280)
                (2): GELU()
                (3): Dropout(p=0.0, inplace=False)
                (4): Conv2d(1280, 320, kernel_size=(1, 1), stride=(1, 1))
                (5): Dropout(p=0.0, inplace=False)
              )
              (dropout_layer): DropPath()
            )
          )
          (23): TransformerEncoderLayer(
            (norm1): LayerNorm((320,), eps=1e-06, elementwise_affine=True)
            (attn): EfficientMultiheadAttention(
              (attn): MultiheadAttention(
                (out_proj): NonDynamicallyQuantizableLinear(in_features=320, out_features=320, bias=True)
              )
              (proj_drop): Dropout(p=0.0, inplace=False)
              (dropout_layer): DropPath()
              (sr): Conv2d(320, 320, kernel_size=(2, 2), stride=(2, 2))
              (norm): LayerNorm((320,), eps=1e-06, elementwise_affine=True)
            )
            (norm2): LayerNorm((320,), eps=1e-06, elementwise_affine=True)
            (ffn): MixFFN(
              (activate): GELU()
              (layers): Sequential(
                (0): Conv2d(320, 1280, kernel_size=(1, 1), stride=(1, 1))
                (1): Conv2d(1280, 1280, kernel_size=(3, 3), stride=(1, 1), padding=(1, 1), groups=1280)
                (2): GELU()
                (3): Dropout(p=0.0, inplace=False)
                (4): Conv2d(1280, 320, kernel_size=(1, 1), stride=(1, 1))
                (5): Dropout(p=0.0, inplace=False)
              )
              (dropout_layer): DropPath()
            )
          )
          (24): TransformerEncoderLayer(
            (norm1): LayerNorm((320,), eps=1e-06, elementwise_affine=True)
            (attn): EfficientMultiheadAttention(
              (attn): MultiheadAttention(
                (out_proj): NonDynamicallyQuantizableLinear(in_features=320, out_features=320, bias=True)
              )
              (proj_drop): Dropout(p=0.0, inplace=False)
              (dropout_layer): DropPath()
              (sr): Conv2d(320, 320, kernel_size=(2, 2), stride=(2, 2))
              (norm): LayerNorm((320,), eps=1e-06, elementwise_affine=True)
            )
            (norm2): LayerNorm((320,), eps=1e-06, elementwise_affine=True)
            (ffn): MixFFN(
              (activate): GELU()
              (layers): Sequential(
                (0): Conv2d(320, 1280, kernel_size=(1, 1), stride=(1, 1))
                (1): Conv2d(1280, 1280, kernel_size=(3, 3), stride=(1, 1), padding=(1, 1), groups=1280)
                (2): GELU()
                (3): Dropout(p=0.0, inplace=False)
                (4): Conv2d(1280, 320, kernel_size=(1, 1), stride=(1, 1))
                (5): Dropout(p=0.0, inplace=False)
              )
              (dropout_layer): DropPath()
            )
          )
          (25): TransformerEncoderLayer(
            (norm1): LayerNorm((320,), eps=1e-06, elementwise_affine=True)
            (attn): EfficientMultiheadAttention(
              (attn): MultiheadAttention(
                (out_proj): NonDynamicallyQuantizableLinear(in_features=320, out_features=320, bias=True)
              )
              (proj_drop): Dropout(p=0.0, inplace=False)
              (dropout_layer): DropPath()
              (sr): Conv2d(320, 320, kernel_size=(2, 2), stride=(2, 2))
              (norm): LayerNorm((320,), eps=1e-06, elementwise_affine=True)
            )
            (norm2): LayerNorm((320,), eps=1e-06, elementwise_affine=True)
            (ffn): MixFFN(
              (activate): GELU()
              (layers): Sequential(
                (0): Conv2d(320, 1280, kernel_size=(1, 1), stride=(1, 1))
                (1): Conv2d(1280, 1280, kernel_size=(3, 3), stride=(1, 1), padding=(1, 1), groups=1280)
                (2): GELU()
                (3): Dropout(p=0.0, inplace=False)
                (4): Conv2d(1280, 320, kernel_size=(1, 1), stride=(1, 1))
                (5): Dropout(p=0.0, inplace=False)
              )
              (dropout_layer): DropPath()
            )
          )
          (26): TransformerEncoderLayer(
            (norm1): LayerNorm((320,), eps=1e-06, elementwise_affine=True)
            (attn): EfficientMultiheadAttention(
              (attn): MultiheadAttention(
                (out_proj): NonDynamicallyQuantizableLinear(in_features=320, out_features=320, bias=True)
              )
              (proj_drop): Dropout(p=0.0, inplace=False)
              (dropout_layer): DropPath()
              (sr): Conv2d(320, 320, kernel_size=(2, 2), stride=(2, 2))
              (norm): LayerNorm((320,), eps=1e-06, elementwise_affine=True)
            )
            (norm2): LayerNorm((320,), eps=1e-06, elementwise_affine=True)
            (ffn): MixFFN(
              (activate): GELU()
              (layers): Sequential(
                (0): Conv2d(320, 1280, kernel_size=(1, 1), stride=(1, 1))
                (1): Conv2d(1280, 1280, kernel_size=(3, 3), stride=(1, 1), padding=(1, 1), groups=1280)
                (2): GELU()
                (3): Dropout(p=0.0, inplace=False)
                (4): Conv2d(1280, 320, kernel_size=(1, 1), stride=(1, 1))
                (5): Dropout(p=0.0, inplace=False)
              )
              (dropout_layer): DropPath()
            )
          )
          (27): TransformerEncoderLayer(
            (norm1): LayerNorm((320,), eps=1e-06, elementwise_affine=True)
            (attn): EfficientMultiheadAttention(
              (attn): MultiheadAttention(
                (out_proj): NonDynamicallyQuantizableLinear(in_features=320, out_features=320, bias=True)
              )
              (proj_drop): Dropout(p=0.0, inplace=False)
              (dropout_layer): DropPath()
              (sr): Conv2d(320, 320, kernel_size=(2, 2), stride=(2, 2))
              (norm): LayerNorm((320,), eps=1e-06, elementwise_affine=True)
            )
            (norm2): LayerNorm((320,), eps=1e-06, elementwise_affine=True)
            (ffn): MixFFN(
              (activate): GELU()
              (layers): Sequential(
                (0): Conv2d(320, 1280, kernel_size=(1, 1), stride=(1, 1))
                (1): Conv2d(1280, 1280, kernel_size=(3, 3), stride=(1, 1), padding=(1, 1), groups=1280)
                (2): GELU()
                (3): Dropout(p=0.0, inplace=False)
                (4): Conv2d(1280, 320, kernel_size=(1, 1), stride=(1, 1))
                (5): Dropout(p=0.0, inplace=False)
              )
              (dropout_layer): DropPath()
            )
          )
          (28): TransformerEncoderLayer(
            (norm1): LayerNorm((320,), eps=1e-06, elementwise_affine=True)
            (attn): EfficientMultiheadAttention(
              (attn): MultiheadAttention(
                (out_proj): NonDynamicallyQuantizableLinear(in_features=320, out_features=320, bias=True)
              )
              (proj_drop): Dropout(p=0.0, inplace=False)
              (dropout_layer): DropPath()
              (sr): Conv2d(320, 320, kernel_size=(2, 2), stride=(2, 2))
              (norm): LayerNorm((320,), eps=1e-06, elementwise_affine=True)
            )
            (norm2): LayerNorm((320,), eps=1e-06, elementwise_affine=True)
            (ffn): MixFFN(
              (activate): GELU()
              (layers): Sequential(
                (0): Conv2d(320, 1280, kernel_size=(1, 1), stride=(1, 1))
                (1): Conv2d(1280, 1280, kernel_size=(3, 3), stride=(1, 1), padding=(1, 1), groups=1280)
                (2): GELU()
                (3): Dropout(p=0.0, inplace=False)
                (4): Conv2d(1280, 320, kernel_size=(1, 1), stride=(1, 1))
                (5): Dropout(p=0.0, inplace=False)
              )
              (dropout_layer): DropPath()
            )
          )
          (29): TransformerEncoderLayer(
            (norm1): LayerNorm((320,), eps=1e-06, elementwise_affine=True)
            (attn): EfficientMultiheadAttention(
              (attn): MultiheadAttention(
                (out_proj): NonDynamicallyQuantizableLinear(in_features=320, out_features=320, bias=True)
              )
              (proj_drop): Dropout(p=0.0, inplace=False)
              (dropout_layer): DropPath()
              (sr): Conv2d(320, 320, kernel_size=(2, 2), stride=(2, 2))
              (norm): LayerNorm((320,), eps=1e-06, elementwise_affine=True)
            )
            (norm2): LayerNorm((320,), eps=1e-06, elementwise_affine=True)
            (ffn): MixFFN(
              (activate): GELU()
              (layers): Sequential(
                (0): Conv2d(320, 1280, kernel_size=(1, 1), stride=(1, 1))
                (1): Conv2d(1280, 1280, kernel_size=(3, 3), stride=(1, 1), padding=(1, 1), groups=1280)
                (2): GELU()
                (3): Dropout(p=0.0, inplace=False)
                (4): Conv2d(1280, 320, kernel_size=(1, 1), stride=(1, 1))
                (5): Dropout(p=0.0, inplace=False)
              )
              (dropout_layer): DropPath()
            )
          )
          (30): TransformerEncoderLayer(
            (norm1): LayerNorm((320,), eps=1e-06, elementwise_affine=True)
            (attn): EfficientMultiheadAttention(
              (attn): MultiheadAttention(
                (out_proj): NonDynamicallyQuantizableLinear(in_features=320, out_features=320, bias=True)
              )
              (proj_drop): Dropout(p=0.0, inplace=False)
              (dropout_layer): DropPath()
              (sr): Conv2d(320, 320, kernel_size=(2, 2), stride=(2, 2))
              (norm): LayerNorm((320,), eps=1e-06, elementwise_affine=True)
            )
            (norm2): LayerNorm((320,), eps=1e-06, elementwise_affine=True)
            (ffn): MixFFN(
              (activate): GELU()
              (layers): Sequential(
                (0): Conv2d(320, 1280, kernel_size=(1, 1), stride=(1, 1))
                (1): Conv2d(1280, 1280, kernel_size=(3, 3), stride=(1, 1), padding=(1, 1), groups=1280)
                (2): GELU()
                (3): Dropout(p=0.0, inplace=False)
                (4): Conv2d(1280, 320, kernel_size=(1, 1), stride=(1, 1))
                (5): Dropout(p=0.0, inplace=False)
              )
              (dropout_layer): DropPath()
            )
          )
          (31): TransformerEncoderLayer(
            (norm1): LayerNorm((320,), eps=1e-06, elementwise_affine=True)
            (attn): EfficientMultiheadAttention(
              (attn): MultiheadAttention(
                (out_proj): NonDynamicallyQuantizableLinear(in_features=320, out_features=320, bias=True)
              )
              (proj_drop): Dropout(p=0.0, inplace=False)
              (dropout_layer): DropPath()
              (sr): Conv2d(320, 320, kernel_size=(2, 2), stride=(2, 2))
              (norm): LayerNorm((320,), eps=1e-06, elementwise_affine=True)
            )
            (norm2): LayerNorm((320,), eps=1e-06, elementwise_affine=True)
            (ffn): MixFFN(
              (activate): GELU()
              (layers): Sequential(
                (0): Conv2d(320, 1280, kernel_size=(1, 1), stride=(1, 1))
                (1): Conv2d(1280, 1280, kernel_size=(3, 3), stride=(1, 1), padding=(1, 1), groups=1280)
                (2): GELU()
                (3): Dropout(p=0.0, inplace=False)
                (4): Conv2d(1280, 320, kernel_size=(1, 1), stride=(1, 1))
                (5): Dropout(p=0.0, inplace=False)
              )
              (dropout_layer): DropPath()
            )
          )
          (32): TransformerEncoderLayer(
            (norm1): LayerNorm((320,), eps=1e-06, elementwise_affine=True)
            (attn): EfficientMultiheadAttention(
              (attn): MultiheadAttention(
                (out_proj): NonDynamicallyQuantizableLinear(in_features=320, out_features=320, bias=True)
              )
              (proj_drop): Dropout(p=0.0, inplace=False)
              (dropout_layer): DropPath()
              (sr): Conv2d(320, 320, kernel_size=(2, 2), stride=(2, 2))
              (norm): LayerNorm((320,), eps=1e-06, elementwise_affine=True)
            )
            (norm2): LayerNorm((320,), eps=1e-06, elementwise_affine=True)
            (ffn): MixFFN(
              (activate): GELU()
              (layers): Sequential(
                (0): Conv2d(320, 1280, kernel_size=(1, 1), stride=(1, 1))
                (1): Conv2d(1280, 1280, kernel_size=(3, 3), stride=(1, 1), padding=(1, 1), groups=1280)
                (2): GELU()
                (3): Dropout(p=0.0, inplace=False)
                (4): Conv2d(1280, 320, kernel_size=(1, 1), stride=(1, 1))
                (5): Dropout(p=0.0, inplace=False)
              )
              (dropout_layer): DropPath()
            )
          )
          (33): TransformerEncoderLayer(
            (norm1): LayerNorm((320,), eps=1e-06, elementwise_affine=True)
            (attn): EfficientMultiheadAttention(
              (attn): MultiheadAttention(
                (out_proj): NonDynamicallyQuantizableLinear(in_features=320, out_features=320, bias=True)
              )
              (proj_drop): Dropout(p=0.0, inplace=False)
              (dropout_layer): DropPath()
              (sr): Conv2d(320, 320, kernel_size=(2, 2), stride=(2, 2))
              (norm): LayerNorm((320,), eps=1e-06, elementwise_affine=True)
            )
            (norm2): LayerNorm((320,), eps=1e-06, elementwise_affine=True)
            (ffn): MixFFN(
              (activate): GELU()
              (layers): Sequential(
                (0): Conv2d(320, 1280, kernel_size=(1, 1), stride=(1, 1))
                (1): Conv2d(1280, 1280, kernel_size=(3, 3), stride=(1, 1), padding=(1, 1), groups=1280)
                (2): GELU()
                (3): Dropout(p=0.0, inplace=False)
                (4): Conv2d(1280, 320, kernel_size=(1, 1), stride=(1, 1))
                (5): Dropout(p=0.0, inplace=False)
              )
              (dropout_layer): DropPath()
            )
          )
          (34): TransformerEncoderLayer(
            (norm1): LayerNorm((320,), eps=1e-06, elementwise_affine=True)
            (attn): EfficientMultiheadAttention(
              (attn): MultiheadAttention(
                (out_proj): NonDynamicallyQuantizableLinear(in_features=320, out_features=320, bias=True)
              )
              (proj_drop): Dropout(p=0.0, inplace=False)
              (dropout_layer): DropPath()
              (sr): Conv2d(320, 320, kernel_size=(2, 2), stride=(2, 2))
              (norm): LayerNorm((320,), eps=1e-06, elementwise_affine=True)
            )
            (norm2): LayerNorm((320,), eps=1e-06, elementwise_affine=True)
            (ffn): MixFFN(
              (activate): GELU()
              (layers): Sequential(
                (0): Conv2d(320, 1280, kernel_size=(1, 1), stride=(1, 1))
                (1): Conv2d(1280, 1280, kernel_size=(3, 3), stride=(1, 1), padding=(1, 1), groups=1280)
                (2): GELU()
                (3): Dropout(p=0.0, inplace=False)
                (4): Conv2d(1280, 320, kernel_size=(1, 1), stride=(1, 1))
                (5): Dropout(p=0.0, inplace=False)
              )
              (dropout_layer): DropPath()
            )
          )
          (35): TransformerEncoderLayer(
            (norm1): LayerNorm((320,), eps=1e-06, elementwise_affine=True)
            (attn): EfficientMultiheadAttention(
              (attn): MultiheadAttention(
                (out_proj): NonDynamicallyQuantizableLinear(in_features=320, out_features=320, bias=True)
              )
              (proj_drop): Dropout(p=0.0, inplace=False)
              (dropout_layer): DropPath()
              (sr): Conv2d(320, 320, kernel_size=(2, 2), stride=(2, 2))
              (norm): LayerNorm((320,), eps=1e-06, elementwise_affine=True)
            )
            (norm2): LayerNorm((320,), eps=1e-06, elementwise_affine=True)
            (ffn): MixFFN(
              (activate): GELU()
              (layers): Sequential(
                (0): Conv2d(320, 1280, kernel_size=(1, 1), stride=(1, 1))
                (1): Conv2d(1280, 1280, kernel_size=(3, 3), stride=(1, 1), padding=(1, 1), groups=1280)
                (2): GELU()
                (3): Dropout(p=0.0, inplace=False)
                (4): Conv2d(1280, 320, kernel_size=(1, 1), stride=(1, 1))
                (5): Dropout(p=0.0, inplace=False)
              )
              (dropout_layer): DropPath()
            )
          )
          (36): TransformerEncoderLayer(
            (norm1): LayerNorm((320,), eps=1e-06, elementwise_affine=True)
            (attn): EfficientMultiheadAttention(
              (attn): MultiheadAttention(
                (out_proj): NonDynamicallyQuantizableLinear(in_features=320, out_features=320, bias=True)
              )
              (proj_drop): Dropout(p=0.0, inplace=False)
              (dropout_layer): DropPath()
              (sr): Conv2d(320, 320, kernel_size=(2, 2), stride=(2, 2))
              (norm): LayerNorm((320,), eps=1e-06, elementwise_affine=True)
            )
            (norm2): LayerNorm((320,), eps=1e-06, elementwise_affine=True)
            (ffn): MixFFN(
              (activate): GELU()
              (layers): Sequential(
                (0): Conv2d(320, 1280, kernel_size=(1, 1), stride=(1, 1))
                (1): Conv2d(1280, 1280, kernel_size=(3, 3), stride=(1, 1), padding=(1, 1), groups=1280)
                (2): GELU()
                (3): Dropout(p=0.0, inplace=False)
                (4): Conv2d(1280, 320, kernel_size=(1, 1), stride=(1, 1))
                (5): Dropout(p=0.0, inplace=False)
              )
              (dropout_layer): DropPath()
            )
          )
          (37): TransformerEncoderLayer(
            (norm1): LayerNorm((320,), eps=1e-06, elementwise_affine=True)
            (attn): EfficientMultiheadAttention(
              (attn): MultiheadAttention(
                (out_proj): NonDynamicallyQuantizableLinear(in_features=320, out_features=320, bias=True)
              )
              (proj_drop): Dropout(p=0.0, inplace=False)
              (dropout_layer): DropPath()
              (sr): Conv2d(320, 320, kernel_size=(2, 2), stride=(2, 2))
              (norm): LayerNorm((320,), eps=1e-06, elementwise_affine=True)
            )
            (norm2): LayerNorm((320,), eps=1e-06, elementwise_affine=True)
            (ffn): MixFFN(
              (activate): GELU()
              (layers): Sequential(
                (0): Conv2d(320, 1280, kernel_size=(1, 1), stride=(1, 1))
                (1): Conv2d(1280, 1280, kernel_size=(3, 3), stride=(1, 1), padding=(1, 1), groups=1280)
                (2): GELU()
                (3): Dropout(p=0.0, inplace=False)
                (4): Conv2d(1280, 320, kernel_size=(1, 1), stride=(1, 1))
                (5): Dropout(p=0.0, inplace=False)
              )
              (dropout_layer): DropPath()
            )
          )
          (38): TransformerEncoderLayer(
            (norm1): LayerNorm((320,), eps=1e-06, elementwise_affine=True)
            (attn): EfficientMultiheadAttention(
              (attn): MultiheadAttention(
                (out_proj): NonDynamicallyQuantizableLinear(in_features=320, out_features=320, bias=True)
              )
              (proj_drop): Dropout(p=0.0, inplace=False)
              (dropout_layer): DropPath()
              (sr): Conv2d(320, 320, kernel_size=(2, 2), stride=(2, 2))
              (norm): LayerNorm((320,), eps=1e-06, elementwise_affine=True)
            )
            (norm2): LayerNorm((320,), eps=1e-06, elementwise_affine=True)
            (ffn): MixFFN(
              (activate): GELU()
              (layers): Sequential(
                (0): Conv2d(320, 1280, kernel_size=(1, 1), stride=(1, 1))
                (1): Conv2d(1280, 1280, kernel_size=(3, 3), stride=(1, 1), padding=(1, 1), groups=1280)
                (2): GELU()
                (3): Dropout(p=0.0, inplace=False)
                (4): Conv2d(1280, 320, kernel_size=(1, 1), stride=(1, 1))
                (5): Dropout(p=0.0, inplace=False)
              )
              (dropout_layer): DropPath()
            )
          )
          (39): TransformerEncoderLayer(
            (norm1): LayerNorm((320,), eps=1e-06, elementwise_affine=True)
            (attn): EfficientMultiheadAttention(
              (attn): MultiheadAttention(
                (out_proj): NonDynamicallyQuantizableLinear(in_features=320, out_features=320, bias=True)
              )
              (proj_drop): Dropout(p=0.0, inplace=False)
              (dropout_layer): DropPath()
              (sr): Conv2d(320, 320, kernel_size=(2, 2), stride=(2, 2))
              (norm): LayerNorm((320,), eps=1e-06, elementwise_affine=True)
            )
            (norm2): LayerNorm((320,), eps=1e-06, elementwise_affine=True)
            (ffn): MixFFN(
              (activate): GELU()
              (layers): Sequential(
                (0): Conv2d(320, 1280, kernel_size=(1, 1), stride=(1, 1))
                (1): Conv2d(1280, 1280, kernel_size=(3, 3), stride=(1, 1), padding=(1, 1), groups=1280)
                (2): GELU()
                (3): Dropout(p=0.0, inplace=False)
                (4): Conv2d(1280, 320, kernel_size=(1, 1), stride=(1, 1))
                (5): Dropout(p=0.0, inplace=False)
              )
              (dropout_layer): DropPath()
            )
          )
        )
        (2): LayerNorm((320,), eps=1e-06, elementwise_affine=True)
      )
      (3): ModuleList(
        (0): PatchEmbed(
          (projection): Conv2d(320, 512, kernel_size=(3, 3), stride=(2, 2), padding=(1, 1))
          (norm): LayerNorm((512,), eps=1e-06, elementwise_affine=True)
        )
        (1): ModuleList(
          (0): TransformerEncoderLayer(
            (norm1): LayerNorm((512,), eps=1e-06, elementwise_affine=True)
            (attn): EfficientMultiheadAttention(
              (attn): MultiheadAttention(
                (out_proj): NonDynamicallyQuantizableLinear(in_features=512, out_features=512, bias=True)
              )
              (proj_drop): Dropout(p=0.0, inplace=False)
              (dropout_layer): DropPath()
            )
            (norm2): LayerNorm((512,), eps=1e-06, elementwise_affine=True)
            (ffn): MixFFN(
              (activate): GELU()
              (layers): Sequential(
                (0): Conv2d(512, 2048, kernel_size=(1, 1), stride=(1, 1))
                (1): Conv2d(2048, 2048, kernel_size=(3, 3), stride=(1, 1), padding=(1, 1), groups=2048)
                (2): GELU()
                (3): Dropout(p=0.0, inplace=False)
                (4): Conv2d(2048, 512, kernel_size=(1, 1), stride=(1, 1))
                (5): Dropout(p=0.0, inplace=False)
              )
              (dropout_layer): DropPath()
            )
          )
          (1): TransformerEncoderLayer(
            (norm1): LayerNorm((512,), eps=1e-06, elementwise_affine=True)
            (attn): EfficientMultiheadAttention(
              (attn): MultiheadAttention(
                (out_proj): NonDynamicallyQuantizableLinear(in_features=512, out_features=512, bias=True)
              )
              (proj_drop): Dropout(p=0.0, inplace=False)
              (dropout_layer): DropPath()
            )
            (norm2): LayerNorm((512,), eps=1e-06, elementwise_affine=True)
            (ffn): MixFFN(
              (activate): GELU()
              (layers): Sequential(
                (0): Conv2d(512, 2048, kernel_size=(1, 1), stride=(1, 1))
                (1): Conv2d(2048, 2048, kernel_size=(3, 3), stride=(1, 1), padding=(1, 1), groups=2048)
                (2): GELU()
                (3): Dropout(p=0.0, inplace=False)
                (4): Conv2d(2048, 512, kernel_size=(1, 1), stride=(1, 1))
                (5): Dropout(p=0.0, inplace=False)
              )
              (dropout_layer): DropPath()
            )
          )
          (2): TransformerEncoderLayer(
            (norm1): LayerNorm((512,), eps=1e-06, elementwise_affine=True)
            (attn): EfficientMultiheadAttention(
              (attn): MultiheadAttention(
                (out_proj): NonDynamicallyQuantizableLinear(in_features=512, out_features=512, bias=True)
              )
              (proj_drop): Dropout(p=0.0, inplace=False)
              (dropout_layer): DropPath()
            )
            (norm2): LayerNorm((512,), eps=1e-06, elementwise_affine=True)
            (ffn): MixFFN(
              (activate): GELU()
              (layers): Sequential(
                (0): Conv2d(512, 2048, kernel_size=(1, 1), stride=(1, 1))
                (1): Conv2d(2048, 2048, kernel_size=(3, 3), stride=(1, 1), padding=(1, 1), groups=2048)
                (2): GELU()
                (3): Dropout(p=0.0, inplace=False)
                (4): Conv2d(2048, 512, kernel_size=(1, 1), stride=(1, 1))
                (5): Dropout(p=0.0, inplace=False)
              )
              (dropout_layer): DropPath()
            )
          )
        )
        (2): LayerNorm((512,), eps=1e-06, elementwise_affine=True)
      )
    )
  )
  init_cfg={'type': 'Pretrained', 'checkpoint': 'pretrain/mit_b5_weight.pth'}
  (decode_head): MaskClipPlusSegformerHead(
    input_transform=None, ignore_index=255, align_corners=False
    (loss_decode): CrossEntropyLoss()
    (decode_module): SegformerHead(
      input_transform=multiple_select, ignore_index=255, align_corners=False
      (loss_decode): CrossEntropyLoss()
      (conv_seg): Conv2d(512, 59, kernel_size=(1, 1), stride=(1, 1))
      (dropout): Dropout2d(p=0.1, inplace=False)
      (convs): ModuleList(
        (0): ConvModule(
          (conv): Conv2d(64, 512, kernel_size=(1, 1), stride=(1, 1), bias=False)
          (bn): _BatchNormXd(512, eps=1e-05, momentum=0.1, affine=True, track_running_stats=True)
          (activate): ReLU(inplace=True)
        )
        (1): ConvModule(
          (conv): Conv2d(128, 512, kernel_size=(1, 1), stride=(1, 1), bias=False)
          (bn): _BatchNormXd(512, eps=1e-05, momentum=0.1, affine=True, track_running_stats=True)
          (activate): ReLU(inplace=True)
        )
        (2): ConvModule(
          (conv): Conv2d(320, 512, kernel_size=(1, 1), stride=(1, 1), bias=False)
          (bn): _BatchNormXd(512, eps=1e-05, momentum=0.1, affine=True, track_running_stats=True)
          (activate): ReLU(inplace=True)
        )
        (3): ConvModule(
          (conv): Conv2d(512, 512, kernel_size=(1, 1), stride=(1, 1), bias=False)
          (bn): _BatchNormXd(512, eps=1e-05, momentum=0.1, affine=True, track_running_stats=True)
          (activate): ReLU(inplace=True)
        )
      )
      (fusion_conv): ConvModule(
        (conv): Conv2d(2048, 512, kernel_size=(1, 1), stride=(1, 1), bias=False)
        (bn): _BatchNormXd(512, eps=1e-05, momentum=0.1, affine=True, track_running_stats=True)
        (activate): ReLU(inplace=True)
      )
    )
    init_cfg={'type': 'Normal', 'std': 0.01, 'override': {'name': 'conv_seg'}}
    (clip): VisionTransformer(
      (patch_embed): PatchEmbed(
        (adap_padding): AdaptivePadding()
        (projection): Conv2d(3, 768, kernel_size=(16, 16), stride=(16, 16), bias=False)
      )
      (drop_after_pos): Dropout(p=0.0, inplace=False)
      (layers): ModuleList(
        (0): TransformerEncoderLayer(
          (ln1): LayerNorm((768,), eps=1e-06, elementwise_affine=True)
          (attn): MultiheadAttention(
            (attn): MultiheadAttention(
              (out_proj): NonDynamicallyQuantizableLinear(in_features=768, out_features=768, bias=True)
            )
            (proj_drop): Dropout(p=0.0, inplace=False)
            (dropout_layer): DropPath()
          )
          (ln2): LayerNorm((768,), eps=1e-06, elementwise_affine=True)
          (ffn): FFN(
            (activate): GELU()
            (layers): Sequential(
              (0): Sequential(
                (0): Linear(in_features=768, out_features=3072, bias=True)
                (1): GELU()
                (2): Dropout(p=0.0, inplace=False)
              )
              (1): Linear(in_features=3072, out_features=768, bias=True)
              (2): Dropout(p=0.0, inplace=False)
            )
            (dropout_layer): DropPath()
          )
        )
        (1): TransformerEncoderLayer(
          (ln1): LayerNorm((768,), eps=1e-06, elementwise_affine=True)
          (attn): MultiheadAttention(
            (attn): MultiheadAttention(
              (out_proj): NonDynamicallyQuantizableLinear(in_features=768, out_features=768, bias=True)
            )
            (proj_drop): Dropout(p=0.0, inplace=False)
            (dropout_layer): DropPath()
          )
          (ln2): LayerNorm((768,), eps=1e-06, elementwise_affine=True)
          (ffn): FFN(
            (activate): GELU()
            (layers): Sequential(
              (0): Sequential(
                (0): Linear(in_features=768, out_features=3072, bias=True)
                (1): GELU()
                (2): Dropout(p=0.0, inplace=False)
              )
              (1): Linear(in_features=3072, out_features=768, bias=True)
              (2): Dropout(p=0.0, inplace=False)
            )
            (dropout_layer): DropPath()
          )
        )
        (2): TransformerEncoderLayer(
          (ln1): LayerNorm((768,), eps=1e-06, elementwise_affine=True)
          (attn): MultiheadAttention(
            (attn): MultiheadAttention(
              (out_proj): NonDynamicallyQuantizableLinear(in_features=768, out_features=768, bias=True)
            )
            (proj_drop): Dropout(p=0.0, inplace=False)
            (dropout_layer): DropPath()
          )
          (ln2): LayerNorm((768,), eps=1e-06, elementwise_affine=True)
          (ffn): FFN(
            (activate): GELU()
            (layers): Sequential(
              (0): Sequential(
                (0): Linear(in_features=768, out_features=3072, bias=True)
                (1): GELU()
                (2): Dropout(p=0.0, inplace=False)
              )
              (1): Linear(in_features=3072, out_features=768, bias=True)
              (2): Dropout(p=0.0, inplace=False)
            )
            (dropout_layer): DropPath()
          )
        )
        (3): TransformerEncoderLayer(
          (ln1): LayerNorm((768,), eps=1e-06, elementwise_affine=True)
          (attn): MultiheadAttention(
            (attn): MultiheadAttention(
              (out_proj): NonDynamicallyQuantizableLinear(in_features=768, out_features=768, bias=True)
            )
            (proj_drop): Dropout(p=0.0, inplace=False)
            (dropout_layer): DropPath()
          )
          (ln2): LayerNorm((768,), eps=1e-06, elementwise_affine=True)
          (ffn): FFN(
            (activate): GELU()
            (layers): Sequential(
              (0): Sequential(
                (0): Linear(in_features=768, out_features=3072, bias=True)
                (1): GELU()
                (2): Dropout(p=0.0, inplace=False)
              )
              (1): Linear(in_features=3072, out_features=768, bias=True)
              (2): Dropout(p=0.0, inplace=False)
            )
            (dropout_layer): DropPath()
          )
        )
        (4): TransformerEncoderLayer(
          (ln1): LayerNorm((768,), eps=1e-06, elementwise_affine=True)
          (attn): MultiheadAttention(
            (attn): MultiheadAttention(
              (out_proj): NonDynamicallyQuantizableLinear(in_features=768, out_features=768, bias=True)
            )
            (proj_drop): Dropout(p=0.0, inplace=False)
            (dropout_layer): DropPath()
          )
          (ln2): LayerNorm((768,), eps=1e-06, elementwise_affine=True)
          (ffn): FFN(
            (activate): GELU()
            (layers): Sequential(
              (0): Sequential(
                (0): Linear(in_features=768, out_features=3072, bias=True)
                (1): GELU()
                (2): Dropout(p=0.0, inplace=False)
              )
              (1): Linear(in_features=3072, out_features=768, bias=True)
              (2): Dropout(p=0.0, inplace=False)
            )
            (dropout_layer): DropPath()
          )
        )
        (5): TransformerEncoderLayer(
          (ln1): LayerNorm((768,), eps=1e-06, elementwise_affine=True)
          (attn): MultiheadAttention(
            (attn): MultiheadAttention(
              (out_proj): NonDynamicallyQuantizableLinear(in_features=768, out_features=768, bias=True)
            )
            (proj_drop): Dropout(p=0.0, inplace=False)
            (dropout_layer): DropPath()
          )
          (ln2): LayerNorm((768,), eps=1e-06, elementwise_affine=True)
          (ffn): FFN(
            (activate): GELU()
            (layers): Sequential(
              (0): Sequential(
                (0): Linear(in_features=768, out_features=3072, bias=True)
                (1): GELU()
                (2): Dropout(p=0.0, inplace=False)
              )
              (1): Linear(in_features=3072, out_features=768, bias=True)
              (2): Dropout(p=0.0, inplace=False)
            )
            (dropout_layer): DropPath()
          )
        )
        (6): TransformerEncoderLayer(
          (ln1): LayerNorm((768,), eps=1e-06, elementwise_affine=True)
          (attn): MultiheadAttention(
            (attn): MultiheadAttention(
              (out_proj): NonDynamicallyQuantizableLinear(in_features=768, out_features=768, bias=True)
            )
            (proj_drop): Dropout(p=0.0, inplace=False)
            (dropout_layer): DropPath()
          )
          (ln2): LayerNorm((768,), eps=1e-06, elementwise_affine=True)
          (ffn): FFN(
            (activate): GELU()
            (layers): Sequential(
              (0): Sequential(
                (0): Linear(in_features=768, out_features=3072, bias=True)
                (1): GELU()
                (2): Dropout(p=0.0, inplace=False)
              )
              (1): Linear(in_features=3072, out_features=768, bias=True)
              (2): Dropout(p=0.0, inplace=False)
            )
            (dropout_layer): DropPath()
          )
        )
        (7): TransformerEncoderLayer(
          (ln1): LayerNorm((768,), eps=1e-06, elementwise_affine=True)
          (attn): MultiheadAttention(
            (attn): MultiheadAttention(
              (out_proj): NonDynamicallyQuantizableLinear(in_features=768, out_features=768, bias=True)
            )
            (proj_drop): Dropout(p=0.0, inplace=False)
            (dropout_layer): DropPath()
          )
          (ln2): LayerNorm((768,), eps=1e-06, elementwise_affine=True)
          (ffn): FFN(
            (activate): GELU()
            (layers): Sequential(
              (0): Sequential(
                (0): Linear(in_features=768, out_features=3072, bias=True)
                (1): GELU()
                (2): Dropout(p=0.0, inplace=False)
              )
              (1): Linear(in_features=3072, out_features=768, bias=True)
              (2): Dropout(p=0.0, inplace=False)
            )
            (dropout_layer): DropPath()
          )
        )
        (8): TransformerEncoderLayer(
          (ln1): LayerNorm((768,), eps=1e-06, elementwise_affine=True)
          (attn): MultiheadAttention(
            (attn): MultiheadAttention(
              (out_proj): NonDynamicallyQuantizableLinear(in_features=768, out_features=768, bias=True)
            )
            (proj_drop): Dropout(p=0.0, inplace=False)
            (dropout_layer): DropPath()
          )
          (ln2): LayerNorm((768,), eps=1e-06, elementwise_affine=True)
          (ffn): FFN(
            (activate): GELU()
            (layers): Sequential(
              (0): Sequential(
                (0): Linear(in_features=768, out_features=3072, bias=True)
                (1): GELU()
                (2): Dropout(p=0.0, inplace=False)
              )
              (1): Linear(in_features=3072, out_features=768, bias=True)
              (2): Dropout(p=0.0, inplace=False)
            )
            (dropout_layer): DropPath()
          )
        )
        (9): TransformerEncoderLayer(
          (ln1): LayerNorm((768,), eps=1e-06, elementwise_affine=True)
          (attn): MultiheadAttention(
            (attn): MultiheadAttention(
              (out_proj): NonDynamicallyQuantizableLinear(in_features=768, out_features=768, bias=True)
            )
            (proj_drop): Dropout(p=0.0, inplace=False)
            (dropout_layer): DropPath()
          )
          (ln2): LayerNorm((768,), eps=1e-06, elementwise_affine=True)
          (ffn): FFN(
            (activate): GELU()
            (layers): Sequential(
              (0): Sequential(
                (0): Linear(in_features=768, out_features=3072, bias=True)
                (1): GELU()
                (2): Dropout(p=0.0, inplace=False)
              )
              (1): Linear(in_features=3072, out_features=768, bias=True)
              (2): Dropout(p=0.0, inplace=False)
            )
            (dropout_layer): DropPath()
          )
        )
        (10): TransformerEncoderLayer(
          (ln1): LayerNorm((768,), eps=1e-06, elementwise_affine=True)
          (attn): MultiheadAttention(
            (attn): MultiheadAttention(
              (out_proj): NonDynamicallyQuantizableLinear(in_features=768, out_features=768, bias=True)
            )
            (proj_drop): Dropout(p=0.0, inplace=False)
            (dropout_layer): DropPath()
          )
          (ln2): LayerNorm((768,), eps=1e-06, elementwise_affine=True)
          (ffn): FFN(
            (activate): GELU()
            (layers): Sequential(
              (0): Sequential(
                (0): Linear(in_features=768, out_features=3072, bias=True)
                (1): GELU()
                (2): Dropout(p=0.0, inplace=False)
              )
              (1): Linear(in_features=3072, out_features=768, bias=True)
              (2): Dropout(p=0.0, inplace=False)
            )
            (dropout_layer): DropPath()
          )
        )
        (11): TransformerEncoderLayer(
          (ln1): LayerNorm((768,), eps=1e-06, elementwise_affine=True)
          (attn): MultiheadAttention(
            (attn): MultiheadAttention(
              (out_proj): NonDynamicallyQuantizableLinear(in_features=768, out_features=768, bias=True)
            )
            (proj_drop): Dropout(p=0.0, inplace=False)
            (dropout_layer): DropPath()
          )
          (ln2): LayerNorm((768,), eps=1e-06, elementwise_affine=True)
          (ffn): FFN(
            (activate): GELU()
            (layers): Sequential(
              (0): Sequential(
                (0): Linear(in_features=768, out_features=3072, bias=True)
                (1): GELU()
                (2): Dropout(p=0.0, inplace=False)
              )
              (1): Linear(in_features=3072, out_features=768, bias=True)
              (2): Dropout(p=0.0, inplace=False)
            )
            (dropout_layer): DropPath()
          )
        )
      )
      (ln0): LayerNorm((768,), eps=1e-06, elementwise_affine=True)
      (ln1): LayerNorm((768,), eps=1e-06, elementwise_affine=True)
    )
    (proj): Conv2d(768, 512, kernel_size=(1, 1), stride=(1, 1), bias=False)
  )
)
2023-02-19 12:48:24,405 - mmseg - INFO - Loaded 4996 images
2023-02-19 12:48:26,669 - mmseg - INFO - Loaded 5104 images
2023-02-19 12:48:26,669 - mmseg - INFO - Start running, host: root@workspace-p4cxarvku5qr-0, work_dir: /root/sj/MaskCLIP_SegFormer/work_dirs/anno_free/vit-sfb5
2023-02-19 12:48:26,669 - mmseg - INFO - Hooks will be executed in the following order:
…
